models/model_PER_DQN.pth (torch, 76299 bytes, 8 tensors)

ln1.weight f4 [64, 22]
000000 56 f7 d0 3d d0 a6 3d be c9 3a 11 c0 3a 89 d0 3e
       0.102034256 -0.18520665 -2.269213 0.40729696
000010 4e 5b 9c be 97 09 a6 bd 53 15 d6 c0 d2 82 4f be
       -0.3053841 -0.08107298 -6.690103 -0.20264748
000020 4d df c9 be 7c 52 91 3e 4a 83 21 bf 91 9e 03 be
       -0.39428177 0.28383243 -0.63090956 -0.12853457
000030 aa 27 a0 3d 83 bc 93 3e 85 80 33 bf ce 93 9b 3c
       0.07820065 0.2885476 -0.7011798 0.018991377
000040 0f b4 97 3d 6f a6 42 3e 24 a7 48 3f 33 c5 2b 3e
       0.0740739 0.19008802 0.78380036 0.16774444
000050 8a 26 eb bf d4 d6 3c bd 83 22 1a 3f 19 cb c4 be
       -1.8371136 -0.046103314 0.6020891 -0.384362
000060 4b 60 12 c1 2a 7d 23 bd 49 d1 bd 3e 2e 72 a8 3e
       -9.148509 -0.039914288 0.37073734 0.32899612
000070 a6 90 cb bd 00 a5 a4 3b 22 c2 a5 3e e4 be ae 3e
       -0.09939699 0.0050245523 0.32374674 0.34130013
000080 82 99 d8 be 5a 77 9b be 40 e1 07 40 a5 d1 df be
       -0.42304617 -0.30364496 2.1231232 -0.43714634
000090 56 73 06 c0 ed ce 08 be d5 05 24 c0 e6 8e d6 3e
       -2.1007895 -0.13360186 -2.562856 0.41905898
0000a0 aa 5c de 3f c9 d5 d7 be b6 2d 83 be 77 41 0e 3e
       1.7372029 -0.42155293 -0.25620812 0.1389216
0000b0 c3 2b 50 3f b2 75 a9 be 75 52 a5 40 47 76 20 3f
       0.81316775 -0.33097607 5.1663156 0.62680477
0000c0 05 f5 a8 bd ed 7d 5b bd b4 bc 8b bf 14 9d 19 3f
       -0.08249859 -0.05358689 -1.0916963 0.6000531
0000d0 49 46 d3 3e a4 a8 e5 be 28 73 2d bf 71 a5 18 bf
       0.4126456 -0.44855225 -0.6775384 -0.59627444
0000e0 c6 d8 81 bf 5e a2 0b 3f 2e fa f7 bf bb 88 86 be
       -1.0144279 0.5454463 -1.9373224 -0.26276192
0000f0 13 88 8c 3f b1 35 61 be 88 b2 e1 be 6b 8f 7a be
       1.0979027 -0.21993138 -0.4408152 -0.24468772
000100 57 e9 a0 3e 42 46 e6 be 70 14 19 40 16 03 cd be
       0.31428024 -0.44975477 2.3918724 -0.40041417
000110 68 fe 45 c0 65 86 93 bf a9 dd b9 be 3d ab 60 3f
       -3.0936527 -1.1525389 -0.36301926 0.8776129
000120 15 f3 e4 3e d5 bf ab be 77 34 35 bd 63 3c 3e be
       0.44716707 -0.33544794 -0.044239487 -0.18577723
000130 30 58 9b bd e7 a1 fb 3e f2 bf 92 3f f9 73 83 be
       -0.0758518 0.4914696 1.1464827 -0.25674418
000140 f4 b5 8b bf df a1 e5 bc da 41 a2 bf 48 ed 9e be
       -1.0914903 -0.028031288 -1.2676346 -0.31040406
000150 35 af 39 3f e0 f2 6b be ba 6c ba be d6 ab bd bd
       0.7253297 -0.23041868 -0.36411077 -0.09261291
000160 8c 53 c3 3e b1 bd 43 3d cb 59 96 c0 c3 6f 07 c0
       0.3814968 0.047788326 -4.698461 -2.1161964
000170 b3 1e 4b 3f 82 08 dd 3e f3 f5 c5 be 42 e2 65 bf
       0.7934372 0.43170553 -0.38664207 -0.8979837
000180 4b 4a b9 be 94 0f a4 bf 34 0c 37 bf 75 c1 9d be
       -0.36189494 -1.2817254 -0.71502995 -0.30811659
000190 ab b8 a0 3e a9 84 21 bf 6c cd 98 bf e9 80 fb bb
       0.3139089 -0.6309305 -1.193769 -0.0076752794
0001a0 71 d8 44 3f 1d c3 45 3e 51 9f 07 3f 8e 88 45 bf
       0.76892763 0.19312711 0.5297747 -0.7716149
0001b0 be bf 33 bf 47 64 88 3e ae c1 66 c0 3a bd d9 3e
       -0.7021445 0.26639006 -3.6055713 0.4252718
0001c0 ec 76 33 3f c1 1b 56 bf d2 73 ae be bd 20 c8 3d
       0.70103335 -0.836361 -0.3407274 0.09771869
0001d0 0c ad c6 3e 41 0d 96 3e 49 40 9c bd 19 2d 1e bf
       0.388039 0.29306987 -0.07629449 -0.61787564
0001e0 50 b2 dd 3e af 6e 56 3e c1 2c a6 bf e9 19 09 3f
       0.43300104 0.2094066 -1.2982408 0.5355516
0001f0 33 e5 06 c0 db 99 8d bf aa f6 c2 bd af 13 1a 3f
       -2.1077392 -1.1062578 -0.09519704 0.60186285
000200 7f e2 a1 bf 9d 7e c2 3e 12 2c e6 3c 72 e4 07 3f
       -1.2647246 0.37987223 0.028097186 0.53082955
000210 b2 a2 70 3f 49 3a 16 be f1 32 3d 40 5f fb c4 3d
       0.93998253 -0.14670672 2.9562342 0.09618258
000220 2c ec 23 3e c4 08 de bd 11 9d c7 3d b2 ec bc bd
       0.16008061 -0.10841516 0.09746755 -0.092248335
000230 32 fd df 3c 3c 7a 99 bd 42 4f 43 bd 82 fc 46 be
       0.027342413 -0.074940175 -0.047683008 -0.19432262
000240 68 fc 2f c0 8a c7 1f be a3 47 8f be 34 65 10 bf
       -2.7497807 -0.15603462 -0.27984342 -0.56404424
000250 04 ae 15 3f 82 fb ce 3e cd 71 c7 3e 00 17 0c be
       0.5846865 0.4042626 0.3895401 -0.13680649
000260 44 76 39 40 67 56 51 3e 63 3c 65 3f dd 65 ec be
       2.8978434 0.20443116 0.8954527 -0.46171466
000270 aa e8 51 c1 07 1e f6 3d e2 8d 0f be ab bd 36 bd
       -13.119303 0.12017446 -0.14018968 -0.044614475
000280 0b db 8f bf 76 98 9b 3e 77 da 82 3e 9b 93 d1 3d
       -1.1238722 0.30389756 0.255573 0.10233232
000290 f4 13 89 bc 13 37 0e be 2c b0 d5 3f e4 27 84 3e
       -0.016733147 -0.13888197 1.6694388 0.25811684
0002a0 5a 3a bb 3f d4 5c 93 3e 58 25 02 bf 98 bb 59 3e
       1.4627182 0.2878176 -0.5083823 0.21262968
0002b0 fa c8 f1 3d ad af b4 be 99 f4 34 c0 f8 d3 52 be
       0.11805911 -0.3529028 -2.827429 -0.20588672
0002c0 b1 6b 6c be 36 02 ab bd 74 d6 88 3f 4e 2b 42 bd
       -0.23087956 -0.08350031 1.0690446 -0.04740458
0002d0 47 26 c9 bd 02 94 95 3e e8 30 8e bf 14 b0 88 bf
       -0.09821754 0.29214483 -1.1108675 -1.0678735
0002e0 ed a6 86 be cd 40 9d bf c9 00 06 3f c8 b5 d1 3e
       -0.2629923 -1.2285401 0.5234495 0.40959
0002f0 af b4 9d be a5 d5 3d be 77 fb cc 3f 90 a6 bd 3e
       -0.30801913 -0.1853853 1.6014241 0.3704114
000300 06 4e a9 3f 1a 90 3e be ee c7 c2 bf 3d 36 b4 bd
       1.3226936 -0.18609658 -1.5217264 -0.08799408
000310 45 50 c8 3f 7e 78 61 3d a7 ef 84 3e ea 45 e7 3d
       1.5649496 0.05504655 0.2596409 0.11292632
000320 ac df 85 3d 7c e6 43 bf e1 e2 1c 3f f5 d3 31 3f
       0.06536803 -0.76523566 0.6128369 0.69464046
000330 35 6f e1 bf 59 58 ca be 50 c8 0b bf 54 08 13 be
       -1.7612063 -0.3952053 -0.5460253 -0.14358646
000340 12 42 b1 3e 22 33 52 3f a2 1e 20 c0 24 85 85 3e
       0.3462072 0.8210927 -2.5018697 0.2607814
000350 7c 79 f2 bf de 64 80 3e ba ac 4d c0 d8 eb 42 bd
       -1.8943324 0.25076956 -3.2136674 -0.0475882
000360 41 b3 d1 be 58 39 14 bf 83 5f 8f c0 4b 3c b9 be
       -0.40957072 -0.579 -4.480409 -0.36178812
000370 02 5d 1a c0 11 d1 64 3e db b1 27 40 01 d4 04 3f
       -2.4119267 0.22345378 2.6202304 0.5188599
000380 9d 80 6d 3d 17 c2 8c bf 64 14 ab 3d 90 37 03 bf
       0.057983983 -1.0996732 0.083534986 -0.51256657
000390 7a 7f 0a 3e 3a 1c 96 3e 39 a7 82 3d d9 fe a7 be
       0.13525191 0.2931841 0.063795514 -0.3281162
0003a0 09 9b 16 bf 63 31 3f bf c7 29 8e bf 7a 1d b6 be
       -0.58830315 -0.74684733 -1.11065 -0.35569364
0003b0 be 59 c8 bf eb 0f cf 3d f0 f9 d0 bf e5 cf 5a 3f
       -1.5652387 0.10110458 -1.6326275 0.8547347
0003c0 e0 5c bc bf a2 9c 8a bc 0e b8 d0 3f be 09 ee 3e
       -1.4715843 -0.016920391 1.6306169 0.46491808
0003d0 99 ec ca bf 61 29 c6 be 34 ed 32 be ee 35 cf 3e
       -1.5853454 -0.38703445 -0.17473298 0.40470833
0003e0 56 bb be be 05 2e 77 bf 83 94 80 3d 19 d0 ef be
       -0.372523 -0.96554595 0.06278326 -0.46838453
0003f0 2b bc 24 be 96 f2 b0 bd 92 e0 04 c0 35 23 b0 3e
       -0.16087405 -0.086400196 -2.0762067 0.3440186

ln1.bias f4 [64]
000000 91 69 c4 be 4b 7d 2c be 0a 82 5e be de 8c cf be
       -0.3836179 -0.1684467 -0.21729293 -0.4053716
000010 b8 89 68 3e 76 5a b6 3e 34 e8 99 bc 29 88 86 be
       0.22708786 0.3561589 -0.01878748 -0.26275757
000020 a5 f4 14 be 8c 53 32 3e 7d 17 43 3e a5 7e 64 3e
       -0.1454645 0.17414683 0.19051929 0.22313936
000030 2e 5a 4d 3e 78 b1 07 3f 48 d3 c7 be 4e 21 8c bd
       0.20053932 0.5300517 -0.39028382 -0.0684229
000040 92 24 39 3e 65 d9 14 be 14 1d 07 3f 27 2a a3 be
       0.18080357 -0.14536054 0.52778745 -0.31868097
000050 2d 8f e7 be e5 18 4b be 6b 95 3f 3d 4d 7a 95 bd
       -0.45226422 -0.19833715 0.046773355 -0.07298718
000060 d1 84 e0 be 64 9a 10 be c6 92 32 bd 48 69 4f 3d
       -0.4385133 -0.14121395 -0.043597005 0.050637513
000070 75 f0 89 3d 8d 74 30 be d6 15 8d be f8 54 b4 be
       0.06735317 -0.1723196 -0.27555722 -0.35221076
000080 88 f8 88 3c d0 ec 93 be 25 0a 8f 3e 84 45 d9 bc
       0.016720071 -0.2889161 0.27937427 -0.026522405
000090 b1 c5 d9 be d9 97 c1 bd ca db 01 3f cc 11 27 be
       -0.4253364 -0.09452791 0.50725996 -0.16315383
0000a0 2b 00 d6 3c ce 9c 42 3e 3f 4c 04 bd eb 4d ba bd
       0.026123127 0.19005129 -0.032299276 -0.09096893
0000b0 2e 70 a3 3e a6 28 a7 be 65 92 26 3e 36 90 b9 be
       0.31921524 -0.326482 0.16266783 -0.36242837
0000c0 5e 8e 4f be 86 ed 00 3e 3f 23 8b be 89 01 08 bf
       -0.20269153 0.12590608 -0.27175328 -0.5312734
0000d0 b5 1e 07 3e 18 02 b7 3d 6e be 9a be ab 4d 12 3e
       0.13195308 0.08935946 -0.3022341 0.1428744
0000e0 78 94 50 bf 38 85 4c bf 38 03 0c be 33 4b 95 bd
       -0.81476545 -0.79890776 -0.13673103 -0.07289734
0000f0 9a 9c f7 bd 11 a9 b3 be 6f a6 4e 3d b0 1a 0e be
       -0.12090416 -0.35089925 0.050451692 -0.13877368

ln2.weight f4 [128, 64]
000000 d6 b3 23 3f 87 48 c1 3f 60 18 e5 be 27 60 43 3f
       0.6394628 1.5100259 -0.4474516 0.7631859
000010 c7 90 ff be ad 15 06 c0 9d 59 85 3e d0 d7 0c bf
       -0.49915144 -2.095073 0.26044932 -0.55016804
000020 75 13 80 bf 37 e0 bc be 03 a4 62 3f a8 71 bb 3e
       -1.0005938 -0.36889812 0.8853151 0.3661015
000030 fc 69 4c bd 55 29 94 bf dc 6a 6c 3d da 6a 7b 3f
       -0.049905762 -1.1575114 0.057719097 0.9820992
000040 c2 41 74 3e d4 d2 13 bf ba 4f 08 c0 cb a2 cd bf
       0.2385321 -0.57743573 -2.1298661 -1.6065305
000050 d1 db b6 3e c6 42 2f 3e 26 e0 d3 be f9 9e 9e bf
       0.35714582 0.17115316 -0.4138195 -1.2392265
000060 2f 01 bb be 28 3f ac 3e 11 e1 31 bd 3b 9a 71 be
       -0.3652434 0.33641934 -0.04342753 -0.2359399
000070 a6 0a 8c 3c 88 0c 03 3f d4 95 d5 3e 1e f1 17 be
       0.017094921 0.51190996 0.41715872 -0.14838073
000080 97 d6 c4 bf 78 1f df bd b1 0d 85 bf d5 9c f7 bf
       -1.5377988 -0.10894674 -1.0394803 -1.9344736
000090 1c 3d 1d bc f2 a7 d2 bf 5e b7 c5 3e 7a bd 85 3e
       -0.009597089 -1.6457503 0.3861646 0.26121122
0000a0 06 31 9e bf 6b f5 da be b3 ac c8 be 97 ff ad bf
       -1.2358711 -0.42765364 -0.3919426 -1.3593625
0000b0 ff 3f 66 3e f7 ed 97 be 79 c1 8f bf e2 70 75 3e
       0.2248535 -0.2967374 -1.1230918 0.23968843
0000c0 b4 a7 13 bb c2 e4 cc bf 21 04 97 bf 1b ad ed 3d
       -0.0022530379 -1.6007311 -1.1798135 0.11605283
0000d0 a6 8a 58 3f 26 33 aa be f6 cb 16 c0 ce 97 98 bd
       0.8458656 -0.33242148 -2.3561988 -0.074508294
0000e0 4c 5b 2e bf 4c 40 74 be da 40 c3 3e 67 92 0c 3f
       -0.6810806 -0.23852652 0.38135415 0.5491089
0000f0 7e 2a e3 3e 9b 68 91 bf 70 29 bc bf 62 37 9d 3e
       0.44368356 -1.1360048 -1.4700146 0.30706316
000100 06 06 0f be 1e 18 a6 3f c8 b9 98 bf 7c 41 3e bf
       -0.13967142 1.297611 -1.1931696 -0.7431867
000110 d2 7a 96 be 71 ef 3c bf c6 54 0a 3e c2 4c da bf
       -0.2939058 -0.7380286 0.13508901 -1.7054675
000120 aa 35 80 be 01 24 97 3d 21 39 54 bf 49 88 14 3e
       -0.25040942 0.07379914 -0.8289967 0.14505114
000130 f4 c4 de be 30 a0 b7 be f5 f3 43 bf ea fd 7f be
       -0.43509638 -0.358644 -0.76544124 -0.24999204
000140 75 22 d7 bf fc 0f 86 be 05 23 7b be 81 2e a8 be
       -1.680739 -0.2618407 -0.24525078 -0.3284798
000150 7c 14 c7 bf d2 58 91 3e 81 34 04 bf 15 3d 73 3f
       -1.5553126 0.28388077 -0.51642615 0.9501508
000160 74 09 49 bf af c5 96 bf c7 b1 49 3d 22 d2 a9 be
       -0.7853005 -1.1779078 0.049241807 -0.3316813
000170 e1 b6 be bd b3 53 80 bf ff df 61 3f ac 32 88 3e
       -0.09312225 -1.0025543 0.88232416 0.2660116
000180 ed 06 1f 3f ab 85 53 3f 34 d3 97 be 9f be de be
       0.6211994 0.82625836 -0.29653323 -0.43504807
000190 51 e1 b4 bc ec 23 39 bf 69 63 a6 3d 27 be 7b 3f
       -0.022080095 -0.7232044 0.0812443 0.98337024
0001a0 69 09 ce bd 55 74 2b bf 50 53 b8 bd fc 77 b8 bf
       -0.100603886 -0.66974384 -0.090002656 -1.4411616
0001b0 d2 37 3f 3e 90 18 b7 3f 04 e6 04 3f 99 5a 01 3f
       0.18673638 1.4304371 0.51913476 0.50528866
0001c0 08 60 ca 3e 72 64 09 3f dd 27 a5 3e 07 04 90 be
       0.3952639 0.5366889 0.32256976 -0.28128073
0001d0 66 54 41 bc d7 2b 25 c0 7e 2a f6 bc 68 13 40 3f
       -0.011799907 -2.5808008 -0.030049559 0.7502961
0001e0 3a 1f e1 bc b9 06 7a bf 82 10 a7 bf 89 1d a7 be
       -0.02748071 -0.9766651 -1.3051913 -0.3263972
0001f0 a0 dd 12 bf 5d da 5d be 4b de a3 bf a8 de b9 3d
       -0.5736942 -0.2166533 -1.2802213 0.090756714
000200 e7 3c aa 3d 68 90 5e bf ac e4 54 3e 3a 4b 1e bf
       0.083123975 -0.86939096 0.20790356 -0.61833537
000210 e3 d5 e9 be 72 e8 64 3e a9 62 95 3d 8a c3 04 3f
       -0.45670995 0.22354296 0.072942086 0.5186087
000220 e4 47 23 be 0a f2 a3 bf 29 31 91 bf 70 c5 48 c0
       -0.15945393 -1.280824 -1.1343127 -3.1370506
000230 2a 9b a9 bc e1 f9 15 3f 31 2a de bf 50 04 ad be
       -0.02070387 0.5858441 -1.7356626 -0.33792353
000240 0d 89 7f 3f d9 9a f0 3e b5 d0 13 bf e4 36 bd bf
       0.998185 0.4699314 -0.57740337 -1.4782376
000250 8d 48 62 3f fb 4b 58 bf 98 f6 0f bf 96 e9 b5 bf
       0.88391954 -0.84490937 -0.5623565 -1.421191
000260 61 56 c2 3d 4c 76 2c be 6b ff 32 bf 4a 9a cf bd
       0.09489132 -0.16842002 -0.69920987 -0.1013685
000270 ce 31 3f 3f 99 fe 85 be 10 9c 10 3f a3 d7 b9 be
       0.7468537 -0.26170805 0.5648813 -0.3629733
000280 1b 21 09 c0 94 a7 8c 3d 01 46 ce 3d f0 34 b1 be
       -2.1426456 0.068679005 0.10071946 -0.346107
000290 de c1 9e 3d 14 a4 48 bf f2 64 20 3f e1 31 44 bf
       0.07751821 -0.78375363 0.6265403 -0.7663861
0002a0 ad ea 8f be f4 c2 40 be ee 90 2c bd 24 aa 37 3e
       -0.2810873 -0.18824369 -0.042130403 0.17935997
0002b0 0d 5b a8 bd ff 94 2b 3f ea 8f e9 bf a5 8e 96 bf
       -0.082204916 0.67024225 -1.8247044 -1.1762282
0002c0 f9 98 c0 3d 14 5d 87 3e 19 5f 64 bf 5f 96 8a bf
       0.09404177 0.264382 -0.8920761 -1.082714
0002d0 cd b1 9d 3e 5d 94 73 3f e9 c0 98 3e 60 ae 16 bf
       0.30799714 0.9514826 0.2983468 -0.58859825
0002e0 03 96 b1 be f7 99 39 3e 2a 4f 41 bf 9d 0c b7 be
       -0.34684762 0.18125139 -0.7551142 -0.3575181
0002f0 a8 2c 2c bf 9c a1 82 be 2f 7a f4 bf 1a 19 1c 3e
       -0.6725564 -0.25513923 -1.9099787 0.1524395
000300 e0 ca 9b be 30 8a bd bf 82 1d 07 c0 85 40 70 3f
       -0.3042822 -1.4807796 -2.111176 0.9384845
000310 28 04 a2 bf e3 d4 90 bf 19 82 bf be a4 fa 23 bf
       -1.2657518 -1.1314968 -0.37403944 -0.6405432
000320 42 1a 42 3f d2 76 16 bd c2 6c c3 3d 7f e0 0f 3f
       0.75821316 -0.03673441 0.09542228 0.5620193
000330 a4 c2 93 bf 4f 9b 84 bd 48 9b e9 bf b2 87 6d be
       -1.1543775 -0.06474935 -1.8250513 -0.23196295
000340 19 5a 1a c0 59 a3 20 be f5 54 0c c0 ac f8 97 3e
       -2.4117491 -0.15687312 -2.1926854 0.2968191
000350 0d f6 81 3f 63 ac 18 be 97 86 96 bf e2 ce 58 3f
       1.0153214 -0.1490951 -1.1759824 0.8469068
000360 fa 61 a8 3e a8 86 13 bf a0 7b 7d bf f7 5c dc bf
       0.3288725 -0.57627344 -0.9901676 -1.7215871
000370 ef 98 8b bf 61 53 64 3f 0b d6 37 c0 f5 ac c7 3e
       -1.0906047 0.89189726 -2.8724391 0.38999143
000380 5c dd 46 bf 41 93 23 be 8f 7c b8 bf ea 8b 1a bf
       -0.7768152 -0.15974142 -1.4413012 -0.6036974
000390 a1 8c 79 3e c0 17 98 bd be 15 e2 3d 33 56 f2 3e
       0.24370052 -0.07426405 0.11039303 0.4733139
0003a0 e6 2e 21 3e f2 97 81 bf d3 d0 18 3f 71 e0 61 3f
       0.15740547 -1.0124495 0.5969364 0.88233095
0003b0 67 6b 3a be 32 b5 67 c0 c0 e3 d8 3e 46 0a d6 bd
       -0.18205033 -3.6204343 0.4236126 -0.10451178
0003c0 b1 52 58 be 09 b7 c1 be a9 ba 02 3e 2a 64 83 3d
       -0.21125294 -0.37834957 0.12766518 0.06415589
0003d0 66 4c b4 be 73 10 ac bf 06 ee ab 3f 73 6b 86 be
       -0.35214537 -1.344252 1.3432014 -0.26253852
0003e0 95 8d 8d 3f 3d 22 01 bf 73 2a f1 3d de de da 3e
       1.1058832 -0.5044287 0.11775675 0.4274816
0003f0 07 c1 75 3f b9 5c 1d be 9b 6a 80 3e 69 1d e9 3e
       0.9599766 -0.15367402 0.25081334 0.4553025

ln2.bias f4 [128]
000000 d0 7d 16 3f 39 0b 07 3e b6 dd dd 3d 12 02 77 bf
       0.58785725 0.13187875 0.10833304 -0.96487534
000010 de db 47 be a2 6e d6 3e 3e 9c 81 be 6f 03 11 bd
       -0.19517466 0.4188128 -0.25314516 -0.035403665
000020 66 b4 51 be dc 10 29 bf 5a 34 72 be 0a 6a 87 bf
       -0.20478973 -0.6604135 -0.23652783 -1.0579236
000030 38 2b 71 be fa f4 68 3e 4f 5f f7 3e 6c c9 81 be
       -0.23551643 0.22749701 0.48314902 -0.25348985
000040 30 eb b2 bd d8 f3 f4 3e c3 b4 42 be 6b 95 23 3f
       -0.08736265 0.47842288 -0.19014268 0.6389987
000050 3b 4b 91 bf 47 fb a0 3e 39 74 c7 be 2f 8b c7 be
       -1.1351084 0.3144171 -0.38955858 -0.38973376
000060 88 da 50 be 3d c3 31 be 21 ea 53 be 16 4b 49 bf
       -0.20395863 -0.17359634 -0.20694782 -0.786302
000070 56 9b 02 bf 8d ed eb bd 3b 20 cc 3d 09 f8 37 be
       -0.51018274 -0.115199186 0.09967085 -0.17965712
000080 21 0b 40 3e 28 87 84 bf 9c fd 6d 3e 95 d6 07 bf
       0.18754245 -1.0353746 0.23241276 -0.530618
000090 7b c4 45 3e 2a 4e f0 3e e9 77 60 3c 20 51 87 3f
       0.19313233 0.46934634 0.013700464 1.0571632
0000a0 21 60 03 3f b3 f9 e7 be 3b 32 8b 3e 19 24 b4 3e
       0.51318556 -0.45307693 0.2718676 0.3518379
0000b0 ab 98 71 be 3d 81 62 be 8c fb 94 bf 49 f7 3b be
       -0.23593394 -0.22119613 -1.1639266 -0.1835605
0000c0 84 4f 35 be 05 64 9c 3e 3e 31 c6 be e2 03 d0 3d
       -0.17706114 0.3054506 -0.38709444 0.101569906
0000d0 69 08 d9 bd ac 4f 9a bf fe f3 91 be 2f 0c 83 3f
       -0.10597307 -1.2055564 -0.28506464 1.0238093
0000e0 fb 80 7f 3e a0 af 02 3f 08 00 12 be a9 7e 4d 3f
       0.24951546 0.5104923 -0.14257824 0.80271393
0000f0 65 5b 6c be c6 83 b2 be 0f 15 13 be 49 84 03 bf
       -0.23081739 -0.3486616 -0.14363502 -0.51373726
000100 01 8e 9b bd 64 5a 56 3f 89 d4 fa 3e 44 0d 88 be
       -0.075954445 0.83731675 0.48990276 -0.2657262
000110 60 7b a0 3e 52 07 33 3d d2 54 57 be 6f 76 1e 3e
       0.31344128 0.043708153 -0.2102845 0.15474866
000120 cd e7 f8 3e bd f7 55 be 28 ab 74 be 06 b4 43 3f
       0.4861435 -0.20895286 -0.23893416 0.7644657
000130 03 d8 09 3e 96 4a 2b bf c4 21 12 be e6 77 a0 bd
       0.13461308 -0.66910684 -0.14270693 -0.07835369
000140 68 27 b8 3e 09 48 0a be fa cc a6 3d 0e 2f a9 3d
       0.35967565 -0.13504042 0.08144565 0.08260928
000150 39 4e 34 be 2b 7b 84 3f cc 49 1c 3f 7e f8 4e bf
       -0.17607965 1.0350088 0.61050105 -0.8084792
000160 20 ff 06 bf 26 e9 32 3f 27 10 e6 bd 18 c1 1c 3f
       -0.5273304 0.69887006 -0.112335496 0.6123214
000170 73 28 e3 be e0 a8 d8 3e 53 06 e9 bf 81 56 df 3d
       -0.44366798 0.4231634 -1.8205055 0.10905171
000180 c3 2a f8 be f6 2c 82 3e a2 9b 01 bf 7a 24 71 bf
       -0.48470125 0.25424927 -0.506281 -0.94196284
000190 48 24 ea 3e 9f 71 80 be f0 c0 3c bf df ba 1c bf
       0.45730805 -0.25086686 -0.737319 -0.6122264
0001a0 b2 e2 61 3e 76 a1 09 3f d3 5d 5b bd fc 95 f0 be
       0.22059134 0.53761995 -0.053556275 -0.4698943
0001b0 84 7b c9 be 80 47 28 bf 0b 9e 05 3f 25 f9 b8 be
       -0.39352047 -0.657341 0.5219428 -0.36127582
0001c0 1c b6 e9 be b5 3d 3f be b7 cb a9 bf c3 88 50 3f
       -0.4564675 -0.18675883 -1.3265294 0.8145868
0001d0 90 3b 27 3e 4c e3 55 be f2 fc 48 bf 2a 5e 49 be
       0.16331315 -0.20887488 -0.78510964 -0.19664827
0001e0 2b 38 30 be 8b f8 56 3f 3e 3c 21 be cd c0 f2 3e
       -0.17208926 0.83972996 -0.15745637 0.4741272
0001f0 96 86 10 3e 99 38 11 3f a1 d6 1d be 1e 88 9f 3e
       0.1411384 0.56726986 -0.15413906 0.31158537

ln3.weight f4 [64, 128]
000000 cc d5 d0 bf 9d 64 43 bf 65 d4 e0 3d d0 79 bc bd
       -1.6315246 -0.763254 0.10978011 -0.092029214
000010 7c 22 90 bd 15 c0 5c be 25 00 49 3d b7 bf b9 3e
       -0.070378274 -0.21557648 0.049072403 0.3627908
000020 e3 c9 fc 3c ac 2d 72 3f d3 41 fe 3e 83 29 1e bf
       0.030857986 0.9460094 0.49659595 -0.6178209
000030 4c 0d 15 bf 0a 3c b5 3e b8 e1 23 3e 6b b4 03 3e
       -0.58223414 0.3539737 0.16004074 0.12861793
000040 37 3f 08 3e a0 8b 37 3f 53 16 01 3f ca 9f 70 be
       0.13305365 0.71697426 0.5042469 -0.23498455
000050 78 36 c5 be 95 0d 31 3f d1 ea de 3e 33 09 1c 3e
       -0.3851812 0.6916135 0.43538526 0.15237884
000060 23 75 29 3d 19 ed 1b 3e 4d b5 63 bf b9 54 48 3e
       0.041371476 0.15227164 -0.8894852 0.19563569
000070 dd 4b 15 c0 f9 cf 3e be 63 5d bc bf 74 7c 25 be
       -2.3327553 -0.18634023 -1.4715999 -0.16160756
000080 60 9d a8 be 8a 16 d5 be 86 ff d8 bd c7 df bf bf
       -0.32932568 -0.41618758 -0.10595612 -1.4990166
000090 79 cb 12 3f 75 0d 1e c0 59 a8 30 bf 8f 1c 75 be
       0.57341725 -2.4695714 -0.6900688 -0.23936675
0000a0 84 06 e5 3e e0 ec a1 3d 01 fc df bf 9b 1b 56 3f
       0.44731534 0.079065084 -1.749878 0.8363587
0000b0 b2 97 9d be cd b1 22 bf 72 52 84 bf c2 0c c0 bf
       -0.30779797 -0.6355255 -1.033766 -1.5003893
0000c0 f6 f6 e0 bd 7e e9 60 bf ba 8e 3b 3f 3b 20 86 3c
       -0.10984604 -0.8785628 0.7326466 0.01637279
0000d0 4a 50 7f 3d db 0f cf bf 91 57 5a bf d8 55 7f bf
       0.06233243 -1.6176714 -0.85289866 -0.9974036
0000e0 4c 69 de 3e 1f b2 29 3f 7d 6d 30 bf a0 0a 2d 3f
       0.4343971 0.66287416 -0.68917066 0.6759434
0000f0 0c dc 20 3d 05 71 ee 3e 84 02 c5 3e 0b e7 76 be
       0.039272353 0.46570602 0.38478482 -0.24111573
000100 ce 8b c2 bd 6e 19 84 be 0e 4a 25 bf c3 56 bb bf
       -0.09499322 -0.2580065 -0.64566123 -1.4635853
000110 35 b0 00 3f 06 e6 9b bf 92 7d d5 be 83 21 14 c0
       0.5026887 -1.2179573 -0.41697365 -2.3145454
000120 01 49 9d bf ce 0a 96 3d 39 b0 4b bf 11 e8 48 bd
       -1.2287904 0.073262796 -0.7956577 -0.04904944
000130 bd 1f 0d be 1b 65 c8 be 43 0d a7 bf a5 2a 06 bf
       -0.13781638 -0.39139637 -1.3050922 -0.5240882
000140 08 e7 7e 3e f8 a2 01 be ec af 15 bf b7 3d ae bf
       0.24892819 -0.12659824 -0.5847156 -1.3612584
000150 2d 2c 1f 3e af 9a 18 bf 7c 99 1f 3f c7 a2 58 bf
       0.15544195 -0.5961103 0.62343574 -0.8462338
000160 f6 bb 83 be 4b af 20 c0 3e b1 fc bd d7 d7 5d 3f
       -0.2572934 -2.510699 -0.12338494 0.8665747
000170 31 58 8c 3c 16 7f 78 3c 7e cc ce bf 7b d8 d9 be
       0.017131897 0.015167018 -1.6156156 -0.42547974
000180 ea 54 51 bf 09 c3 61 bd 2b 7d f3 bf 8e 96 9a be
       -0.81770194 -0.05511764 -1.9022573 -0.3019299
000190 61 ff e2 3e 6f 90 06 3e 34 f9 0e be 97 f5 48 bf
       0.44335464 0.13141035 -0.13962251 -0.7849974
0001a0 3d ca 78 bf b8 35 e9 3e 25 0d 2f be f8 db d5 bf
       -0.9718359 0.45548797 -0.17094858 -1.6707754
0001b0 35 13 96 3e 49 23 4f c0 23 bd 2b c0 f0 dc 13 be
       0.2931153 -3.2365286 -2.683419 -0.1443975
0001c0 f3 be c7 3d d7 72 ef bc bd cb 02 bf 03 b1 72 3d
       0.097532175 -0.029229565 -0.5109213 0.059250843
0001d0 e8 00 8f bf d0 01 7c be c1 69 e2 bf 64 58 37 be
       -1.1172152 -0.24610066 -1.7688524 -0.17904812
0001e0 cc 2a 36 bf 18 00 14 c0 ca 17 1b 3d 7c 5a d9 be
       -0.7115905 -2.3125057 0.037864484 -0.42451847
0001f0 67 52 be be 12 d6 8c be 44 25 42 be a5 9b 54 bf
       -0.37172243 -0.27507073 -0.18959528 -0.83049995
000200 82 41 13 bf 0a 45 44 bf 76 4b 26 3e b3 67 da 3d
       -0.5752183 -0.76667845 0.16239724 0.1066431
000210 5e 8e 7a bf 57 1d 69 3e 39 d4 4f 3e 6e 44 c8 bf
       -0.97873485 0.22765099 0.202958 -1.5645883
000220 ec a6 e5 3d 7f 6a 9b be 9f 65 c3 3e 25 a3 a3 be
       0.112134784 -0.30354688 0.38163468 -0.31960407
000230 46 3b 4d 3f 4e fa 1d bf 0d 1c 34 3e 0c 74 c0 3c
       0.8016857 -0.6171006 0.17588826 0.023492835
000240 36 f2 44 bd 6a 90 8a bf fc e7 92 bf f0 01 51 bd
       -0.048082553 -1.0825322 -1.1477046 -0.05102724
000250 04 d4 37 be 1d 74 3d bf c3 9f c6 3e 33 40 f5 bc
       -0.17951971 -0.740053 0.38793764 -0.02993784
000260 9c 0c c8 bd 78 dc 84 3b 2f 7b aa be 56 f2 d5 be
       -0.0976803 0.0040546022 -0.33297107 -0.4178645
000270 70 a9 29 c0 f4 6d 91 bd a8 2d 4d bf 5f 53 08 3e
       -2.6509666 -0.0710105 -0.8014779 0.13313054
000280 ab d1 84 bf 99 17 95 bf 1f f6 b0 bf 38 20 40 bf
       -1.0376486 -1.1647826 -1.382511 -0.7504916
000290 bc 30 3a be ab 2e a8 be 7e 70 89 bf 7a 1e 41 3f
       -0.18182653 -0.32848105 -1.0737455 0.7543713
0002a0 1e 2d 8a bf 7c 21 50 bf aa 6c 99 bf 20 ab b5 bf
       -1.0795019 -0.81301093 -1.1986287 -1.4192848
0002b0 1e b8 3c bf 74 91 b1 3e df 9b 06 3e 2c c9 c0 be
       -0.7371844 0.34681284 0.13145398 -0.37653482
0002c0 71 c9 32 3e 33 fa af be ce ab a0 3e b7 a9 c2 3f
       0.17459656 -0.34370574 0.31381077 1.5208043
0002d0 02 ef 04 be 75 0c 8c be 85 25 65 be de 64 1a be
       -0.12981799 -0.27353254 -0.22377594 -0.1507754
0002e0 c8 1e bc be 6e 53 73 3f ac 1e 88 bf bd 5d b3 bf
       -0.36742234 0.9504918 -1.063436 -1.4012982
0002f0 4d fc 14 3e e3 16 d0 bf 13 63 b0 bf 42 63 0f bf
       0.1454937 -1.6256984 -1.3780235 -0.5601083
000300 fa b8 d8 bd 0d 5f eb bf 11 d2 1c bf 21 cb 9e be
       -0.105821565 -1.8388382 -0.61258036 -0.3101435
000310 71 07 2b 3f aa 1d 57 be 77 b6 4b 3f e6 74 80 bf
       0.6680823 -0.2100741 0.79575294 -1.0035675
000320 59 55 2b 3e 2c 7c 89 bd 8f ac e4 be 5d b9 a9 3e
       0.16731776 -0.06713137 -0.44662902 0.33149233
000330 c1 ce 2d 3e 47 89 de 3d d1 8f 7c 3e be c1 cd be
       0.16973402 0.10866027 0.24664237 -0.40186876
000340 01 9a fc bf d0 24 93 3d 0f 9f 3c bf a7 21 d4 bf
       -1.9734498 0.07184756 -0.73680204 -1.657277
000350 20 71 a2 bd 64 18 fe bd 67 eb 96 bf 42 ca f6 bf
       -0.07931733 -0.12406996 -1.1790589 -1.9280474
000360 1b 40 45 3d 7e 99 dd bd c5 50 2f 3d 96 43 5d 3f
       0.04815684 -0.10820292 0.042801637 0.8643125
000370 a6 1f 35 bf 8d 48 cd bf 74 09 9a 3d 6a 5e 81 bf
       -0.70751417 -1.6037766 0.07521334 -1.0106938
000380 3a 88 e2 be 41 94 bf bd ab 22 15 3d 5b 6b 01 bf
       -0.44244558 -0.09354449 0.036410015 -0.50554436
000390 1b df a0 be ed c2 e3 3e a3 48 23 bf e6 18 fe be
       -0.31420216 0.44484654 -0.6378271 -0.4962837
0003a0 6a d4 b1 3e ed f6 b1 bf 58 15 60 3c 04 12 2f 3e
       0.34732372 -1.3903481 0.013676964 0.17096716
0003b0 2b d3 36 be 9f 46 86 be ad 7f 30 3f 20 9b 62 bf
       -0.17853992 -0.26225755 0.6894482 -0.8851795
0003c0 ae 42 2e bd 9a 04 9c 3d 96 5d 5a bf 17 61 46 3e
       -0.04254406 0.07618065 -0.8529905 0.19372974
0003d0 a8 0d 60 3e 07 ba cf be ea d7 3f bf a2 c7 29 bc
       0.2188021 -0.40571615 -0.74938834 -0.010362538
0003e0 7a fe 3f bf eb 88 93 bf 25 8f 9b bd 4e 20 87 be
       -0.74997675 -1.1526159 -0.07595662 -0.26391834
0003f0 a5 ab 29 be be b8 71 bf 01 a0 6c be 16 ec 96 3e
       -0.16569383 -0.9442252 -0.23107912 0.29476994

ln3.bias f4 [64]
000000 e5 85 4b bf 5c c3 d0 3d 29 a5 7f bf ac 3d 3c bd
       -0.7950118 0.10193512 -0.9986139 -0.045957252
000010 a0 d9 4a be b9 0a 2d 3f b1 59 35 bf f8 dd a9 3e
       -0.1980958 0.67594486 -0.70839983 0.3317716
000020 25 0c 76 be 42 2c d3 bb 0b 4a a3 be 65 8c d5 be
       -0.2402807 -0.006444485 -0.31892428 -0.41708675
000030 e1 28 07 bf 6d 00 c4 3e 11 f1 75 be 6a 7b 0a bf
       -0.5279675 0.38281575 -0.24017741 -0.54094565
000040 bc c9 da 3d 52 f7 19 be 5a 63 8c be 97 e6 a0 bf
       0.10683009 -0.15035751 -0.2741955 -1.257037
000050 8d 1a e2 be 7c aa 5d 3f fb 73 32 bf a8 97 00 be
       -0.44160882 0.86588264 -0.6970822 -0.12557852
000060 ab 80 a8 3f 5e f1 31 bf b0 ff 5e be e4 4f 70 3f
       1.3164266 -0.6950892 -0.21777225 0.93871903
000070 d0 1b 30 bf 8f 00 74 bf bf 89 b6 bd 59 b9 00 bf
       -0.6879244 -0.9531335 -0.08912992 -0.5028282
000080 9a b9 9a 3f a7 de 13 bf 5c 64 fa be 72 d9 eb be
       1.2087891 -0.57761616 -0.48904693 -0.46064335
000090 38 97 a4 3f 23 69 1c bf 5c b4 71 3f aa d0 eb be
       1.2858648 -0.61097926 0.9441583 -0.46057636
0000a0 3a e1 a7 be 37 66 aa be c4 2c 47 bf 60 b4 53 3f
       -0.32789022 -0.3328111 -0.7780268 0.82697105
0000b0 cd 42 58 be 5b 47 52 3e 5f a0 09 bf c1 20 b5 bd
       -0.21119232 0.20535032 -0.5376033 -0.08844138
0000c0 5c 86 1a 3f c8 1c 9e bf a4 f2 b6 3f 7c c7 56 be
       0.60361266 -1.2352533 1.4292798 -0.20974535
0000d0 62 5d 9a be 5e fe 7a be e4 02 87 be 63 f6 39 3f
       -0.3014937 -0.24511096 -0.26369393 0.7264158
0000e0 15 b2 30 bf 01 70 aa 3b f3 74 2d 3f 58 33 04 bf
       -0.6902173 0.00520134 0.67756575 -0.51640844
0000f0 65 7a ac be 7c 5b 8b 3f b8 50 b7 be 07 4c 9b be
       -0.3368713 1.0887294 -0.3580377 -0.30331442

lout.weight f4 [5, 64]
000000 13 09 95 be 7d c3 19 be a7 ee 0c 3e a2 fb 1f 3e
       -0.29108486 -0.15015979 0.13762914 0.15623334
000010 5d 1b 10 3c 8d 39 04 be ed 1a cf bd d6 99 50 be
       0.008795586 -0.12912579 -0.101125576 -0.20371184
000020 99 09 a8 3f 0f c9 17 3e a4 31 58 3e 86 21 9c 3d
       1.3127929 0.14822792 0.21112686 0.076235816
000030 6b 8b 93 3e 4d d9 f8 3d 61 29 b4 3d 4e d3 15 bf
       0.28817305 0.12150822 0.08796955 -0.5852555
000040 45 49 a6 3d 7e 3d 0f 3e 79 ca db be ac 99 3f bf
       0.08119444 0.13988301 -0.42927912 -0.7484386
000050 4e 50 95 3e 22 f8 a6 3d 1d bd 01 3e 92 98 12 3d
       0.2916283 0.08152796 0.12669797 0.035790034
000060 aa 50 2e 3e ab a4 b3 be 56 37 1d bd 46 75 89 3d
       0.17022958 -0.3508657 -0.03838285 0.06711821
000070 ad 97 b5 3f 90 23 f6 3e 92 f3 f2 be a8 d8 ee 3e
       1.4186913 0.48074007 -0.47451454 0.4664967
000080 69 07 3e 3e 8a fe 2f be eb 32 34 3e 5b 93 9b 3d
       0.18557514 -0.17186943 0.17597549 0.07596465
000090 bd c9 f1 bd 1c 43 47 3e 57 b2 96 3e 63 06 a6 be
       -0.11806057 0.19459194 0.29432938 -0.32426748
0000a0 f7 96 07 3e c6 b1 cd 3e 7a 23 00 3d 86 08 09 3e
       0.13241182 0.40174693 0.031283833 0.13382158
0000b0 a6 c5 5e be 1c 2e a5 3e 0f 01 c1 3e e6 4f 2b be
       -0.21755084 0.3226174 0.3769612 -0.16729698
0000c0 ef 47 06 be e3 2c de be 72 28 50 3e 49 86 8a 3e
       -0.13113378 -0.4339362 0.20327929 0.27055576
0000d0 6a da 06 3e b5 44 ce 3d f8 85 84 be 4e 85 2b be
       0.13169256 0.100716986 -0.2588346 -0.1675007
0000e0 8f 02 2b 3d 35 1d 4e 3e 52 d5 02 be a9 70 6f 3e
       0.041750487 0.20128329 -0.12776688 0.2338282
0000f0 72 0c a3 be 3f 79 16 be a9 43 07 3f b8 75 a0 3e
       -0.31845433 -0.14694689 0.52837616 0.31339812
000100 f4 59 08 be 59 7d b9 bd 6f 22 10 3e bb df 4d 3e
       -0.13315564 -0.09057111 0.14075635 0.20104878
000110 59 c8 37 3d 2b ce eb bd 24 f0 03 b9 e4 18 09 3e
       0.0448688 -0.11513933 -0.00012582593 0.13388401
000120 8c 3b ca 3d 4b c1 19 3e ac 5d 40 be 3a 81 80 bb
       0.09874639 0.15015142 -0.18785733 -0.003921655
000130 7c 63 8f 3d 47 c6 c3 3d af f6 86 bd 8e c4 99 be
       0.07001397 0.09559303 -0.0659002 -0.30032772
000140 8a c8 67 3e ae 0d 0c 3d 98 51 af bf 19 37 f1 be
       0.22635093 0.034192733 -1.3696775 -0.4711235
000150 6d 62 20 3e 38 b4 92 3d ae 8e 40 3e 23 69 d8 3c
       0.15662546 0.0716328 0.18804428 0.02641732
000160 85 6e 00 3e 6e 17 a4 be fe d9 00 3d db 06 9d 3d
       0.1254216 -0.32049125 0.031457894 0.07667323
000170 d5 f5 c0 3d b2 63 48 3e c3 25 ec 3c 28 2d a5 be
       0.09421889 0.1956928 0.0288266 -0.32261014
000180 36 f1 d1 3d 83 30 91 be 87 08 aa bc 03 1b b5 3d
       0.102510855 -0.28357324 -0.02075602 0.08843043
000190 83 1d fd bd f4 58 16 3e 0f 82 92 3e e3 f0 61 bd
       -0.123591445 0.1468237 0.28614852 -0.055161368
0001a0 e4 9f 50 3e bd 0e 7a bd e7 8d a0 bd fd 0e f1 3d
       0.20373493 -0.06104921 -0.07839566 0.11770437
0001b0 3c ee 0c be d3 b7 77 3e 48 93 90 3e e1 c0 02 be
       -0.13762754 0.24191217 0.28237367 -0.1276889
0001c0 85 ee b5 bd b3 cc 7e be d2 1a 86 3e ac a9 83 3c
       -0.088833846 -0.24882774 0.26192337 0.016072117
0001d0 b4 d3 15 3e af 05 9d 3e 91 67 ca 3b 04 23 fe bd
       0.1463154 0.306684 0.006176897 -0.124090225
0001e0 6b de 9f bc ac c8 57 3e 15 79 54 bd f5 22 cb bd
       -0.019515237 0.21072644 -0.051873285 -0.09918777
0001f0 c9 81 33 bd a7 c3 0d be b9 75 12 3f 8b 50 4d 3e
       -0.043824945 -0.13844167 0.5721088 0.20050256
000200 56 87 5c be a6 af 86 3e d1 3a 03 3e 65 1f b8 3d
       -0.21536002 0.26305884 0.12815405 0.08990363
000210 90 92 0f 3d 08 98 d0 bd 80 19 42 bf 8a 9f 02 3e
       0.035051882 -0.10185248 -0.7582016 0.12756172
000220 35 c9 70 be 7c 91 18 3e a9 7b 81 3d 1b 9f 59 3b
       -0.23514254 0.14899248 0.063224144 0.0033206407
000230 c6 e0 8e 3e c7 d1 08 3e 05 06 b4 3d 9c 1f d2 bd
       0.27905864 0.13361274 0.08790211 -0.10259935
000240 c4 b9 dd 3c 05 f2 5e be 72 86 cc be 02 60 96 be
       0.027066119 -0.2177201 -0.39946324 -0.29370123
000250 cb 8c 84 3e fa fe 8b 3d 23 3e a5 bb a3 ec 18 3d
       0.25888667 0.06835742 -0.0050428077 0.03733505
000260 c9 b9 0e 3e 53 dd 7d be f7 1e 9c 3e 11 02 ad 3c
       0.13938059 -0.2479146 0.30492374 0.02111915
000270 53 c3 c6 3e 02 e9 8b be 73 e3 8d be 44 72 0b be
       0.38820896 -0.27326208 -0.27712592 -0.13617808
000280 1d f5 38 3e e4 88 0c 3f 3a 37 7f 3e ae 13 29 3e
       0.18062253 0.5489638 0.24923411 0.16511413
000290 76 25 1a be c5 b6 64 3d ff c1 ac 3e 2a ae c6 be
       -0.15053353 0.055838365 0.33741757 -0.38804752
0002a0 d9 72 2e be ff fe 2f 3e f3 b0 b2 3e 3c 8b 02 3e
       -0.17035998 0.17187117 0.34900627 0.12748426
0002b0 42 50 95 be 09 62 1f 3f e0 c4 b6 3e 5c 8f 04 be
       -0.29162794 0.62258965 0.3569708 -0.12945312
0002c0 26 bd 00 be 26 6d c4 be 60 ce 53 3e 1e 68 f2 3d
       -0.12572154 -0.38364524 0.20684195 0.11836265
0002d0 30 d8 33 3e e5 45 19 3e e8 c7 93 be e2 ef 5e be
       0.17562938 0.14968069 -0.28863454 -0.21771196
0002e0 39 5f a2 bd 6b 0d 54 3e 30 94 18 be 0b 46 56 3e
       -0.079283185 0.20708244 -0.14900279 0.20925157
0002f0 a0 1f a9 bd c5 4f 1f be 67 aa 17 bd 52 cd 8d 3e
       -0.08257985 -0.15557773 -0.037027743 0.2769571
000300 67 c4 9c be e7 9a 98 3e de 29 13 3e 1d ea 1a 3e
       -0.30618593 0.2980568 0.1437144 0.1512837
000310 e4 89 57 bc 3d 53 02 be 2f 7b 0d be ad ce 47 3e
       -0.013155434 -0.12727065 -0.13816522 0.19512434
000320 d1 d4 db 3f e8 73 ff 3d d3 d7 e7 3e 3b 31 57 bc
       1.7174321 0.12473279 0.45281848 -0.013134296
000330 f1 64 69 3e db 8c e4 3d 7b 9b 3e 3e 4b a3 68 be
       0.22792412 0.111596785 0.18613999 -0.22718541
000340 76 8b 39 3e 28 b5 04 bb b5 31 8a be b4 1d 25 bf
       0.18119606 -0.002024958 -0.26991048 -0.6449845
000350 ae 72 8d 3e a5 cc a5 3c db 12 1c 3e 52 76 13 bf
       0.27626556 0.020239184 0.15241568 -0.5760242
000360 e6 0b 0e 3e 8a 96 3a be 7e f1 d7 3d 26 eb 9a 3d
       0.13871726 -0.18221489 0.10544108 0.07564382
000370 6b 04 70 3f d0 bd d0 3e c0 73 8d bf 24 45 92 3e
       0.9375674 0.40769815 -1.1050949 0.28568375
000380 de f3 44 3e ab 5d 41 3e 68 59 c0 3c 8b 44 7e 3e
       0.19233653 0.18883388 0.023480132 0.24830835
000390 0b 20 08 be 6f 82 29 3e 05 4f 06 3e e4 12 5e bd
       -0.13293473 0.16553663 0.13116081 -0.054217234
0003a0 b1 61 74 3e 61 11 0a 3f 7a 98 9c 3e 1b a3 9f 3c
       0.23865391 0.5393277 0.3058508 0.019486954
0003b0 f2 e7 ea bd 56 f2 b2 be 8e f0 97 3e 6d 78 31 be
       -0.11470021 -0.34950513 0.29675716 -0.17331095
0003c0 83 b8 02 be 3b 49 c1 be 67 2a 4c 3e 7f a8 d7 3d
       -0.12765698 -0.37751183 0.1993805 0.10530185
0003d0 f4 29 ec 3d 5b 5b af 3c 71 76 cf be 5c e3 4e be
       0.115314394 0.021405866 -0.4052005 -0.20203918
0003e0 25 e0 8f bf 82 d8 52 3e 1b 1e 02 be 98 0b 68 3e
       -1.1240278 0.20590404 -0.12706797 0.22660673
0003f0 94 4f 08 be 28 28 f7 bd 1c 79 17 3e 71 f6 ae 3e
       -0.13311607 -0.12068206 0.14792293 0.34172395

lout.bias f4 [5]
000000 1f fb f1 3e 14 59 be 3e 1f 53 e7 3e 8b ee ed 3e
       0.47261903 0.37177336 0.45180604 0.46471056
000010 a5 a9 dd 3e
       0.4329349
