models/model_test.pth (torch, 294063 bytes, 6 tensors)

layer1.weight f4 [256, 22]
00000000: 7d72 bdbd 5afb 353e d78f 48be 977b 06be
00000010: a9de 3cbd aa66 c43d 0ddd 04bd 20d8 393e
00000020: e6ac 463c da8f 823d 679e b9bd b6a7 b8bd
00000030: 2008 51be 3a5d adbd ea29 debd e244 1c3d
00000040: 3807 313d f174 313e fcf8 f9bd da26 8ebd
00000050: 3c39 a63d 8f6f 643e bfba 2d3e 668f 173e
00000060: 8b05 2cbe 13e6 d23c e00c 183e 5df9 70be
00000070: 8c42 f5bd 65fe 7dbd f61a 66bd 7f46 2f3e
00000080: a209 20be 7410 ccbd 66c0 5bbe e32e 47be
00000090: 8fb7 62be 76eb 3f3e 2d29 dabc 79b9 b43d
000000a0: eda1 acbd fa5b b2bd 3af9 8cbd 2901 52be
000000b0: e4f8 7bbe c6ca bebd ef04 1c3e dea1 033e
000000c0: fec2 90bd f245 9bbb 1894 033e 648e 6e3e
000000d0: 64b2 963d 9e4e 1b3d 5ccd 233e aeb4 09be
000000e0: fcc8 fd3c a38e 08be b561 1fbe 9eda 9bbd
000000f0: 0bb1 e53d 1e5e ed3d 8577 65bd 682d b33d
00000100: 82fe fc3d 1947 bf3b dcf1 803e b733 cb3c
00000110: c3ea 993e be53 493e dfa4 41be e666 d1bd
00000120: 6163 a83d 9b0e 193e 2933 3a3e 7f1a 3d3e
00000130: f118 513c 22e0 49be c966 8a3b bbfa 14be
00000140: ab45 58be da4c 463e bb5d 093e e025 64be
00000150: 7d8d 8d3a b8ef 29bd 9345 9dbd bb1b f7bd
00000160: 1d18 a33e 1473 01be 522e 493d 4098 d83d
00000170: 1e87 003e e3b7 843d 28b8 5abe a843 2bbe
00000180: 2f47 c53d 1c04 963c 5f64 3abe 4586 e3bd
00000190: 2657 793e 7d27 063e 1cd3 90bd b7bc 48bd
000001a0: c2ac 58be cef8 7ebc 1367 23be df5f 1fbe
000001b0: e5da c2bc 84e6 0e3c b2a5 dbbc 3b07 2c3e
000001c0: 7269 98bd 9e01 503e f226 223e 08aa 32be
000001d0: 2728 26bd ba63 4b3d 5724 893d 6748 7e3d
000001e0: 25b1 a43d 9dff d8bc 4825 2cbe 18db 0b3e
000001f0: 7721 89be 5ee0 6abd 227f fdbd fa48 63bd
00000200: 5152 b8bd 61c6 cebd 77de b4bd cd29 ad3d
00000210: e338 7fbe d7be d9bb 5efc 103e e131 78bc
00000220: e075 c03a 1530 a4bc e14f 163d 3aa6 0b3e
00000230: 9947 553e ed7b fe3d aac7 543e e1e3 be3b
00000240: 20ef dcbd 07bd bebd a5a2 533e ec60 d2bc
00000250: d653 bdbd 617b 28be 70d3 04be 6e43 2fbe
00000260: 06e3 ad3c e80b ed3d ab00 493e a4aa 65be
00000270: 40f4 143e 23cf 79be 3fe7 223c 9773 f9bd
00000280: 01ee 04bd 81e8 f63d ae4d 31be 04ca 05be
00000290: 7cba 503d 33a3 233c 5999 5bbd 1fa9 893d
000002a0: 8560 fcbd be66 1fbd e992 823e 016f a5bd
000002b0: cd73 7f3e 8658 ad3d 3bc3 f5bd 707f 153e
000002c0: a1de a4bd adf4 dbbd 2fb0 6e3c 995d 51be
000002d0: 9bfa da3c 0765 b1bc 0608 0c3e cbe4 203d
000002e0: aafd a83d 2066 903d 7cc6 abbd e429 a3bd
000002f0: 0844 45be 4cbd cc3d e6ff e83d a808 c93d
00000300: 81b5 31be 8b73 c7bb e897 2fbe 5658 fcbd
00000310: 5d45 13be 6315 683d 42ba afbe aeb2 753c
00000320: 443f a3bb 9bf8 033e 5acb 02be d813 f7bd
00000330: f457 09be b88f 093e 95c7 05be 599f 323e
00000340: 8501 123e 4b5f e73d d67b a1bc dc2d 90bc
00000350: 2b28 1b3d 2ae3 21bd 61b0 ebbb e6ec 473d
00000360: b17c 0ebe 9033 bfbd 7c5d 3a3e bd94 18be
00000370: 5981 85be 19a0 7c3e 8ae2 903d 0c0b 2b3c
00000380: 2f0c 32be 93a2 c53d 6709 fabd eccd e2bd
00000390: 4ce1 cdbd 1576 a0bc f84b 053d b7f1 4b3e
000003a0: 3912 8ebc ff4c 4f3e 40d3 0f3e d1c1 e7bd
000003b0: be77 033e 2082 e4bd 3263 13be 552c 793d
000003c0: 853f b33d 0382 3c3e a2a9 54bd 1fa4 ff3c
000003d0: 7a53 8e3d ded4 d3be aef6 453e 2b0b 2bbe
000003e0: 1049 e73c 4e09 b53c 16f0 b8bd e5ee e33c
000003f0: 1adc 653e a5f2 0fbd 9a62 24be 877f 46bc
-0.092503525 0.17771664 -0.1958612 -0.13133083 -0.046110783 0.09589894 -0.032437373 0.18148851
0.012126183 0.06375094 -0.09063416 -0.09016363 -0.20413256 -0.08465047 -0.10847838 0.03815163
0.043219775 0.17329766 -0.12205693 -0.06941004 0.08116385 0.22308181 0.16965769 0.14800796
-0.1679899 0.025744474 0.14848661 -0.23532625 -0.119755834 -0.062010188 -0.056178056 0.17116736
-0.15628675 -0.09964076 -0.21460113 -0.1945148 -0.22140335 0.18742165 -0.026630962 0.088244386
-0.084293224 -0.087089494 -0.06883474 -0.20508255 -0.24606663 -0.0931602 0.15236257 0.12854716
-0.07068442 -0.0047385627 0.12849462 0.23296505 0.07358244 0.037916772 0.15996307 -0.1344783
0.030979626 -0.13335662 -0.15564616 -0.07610057 0.11215409 0.11590217 -0.056022186 0.08748895
0.12353231 0.005837333 0.25184524 0.024804933 0.3006192 0.19660851 -0.1891055 -0.102247044
0.0822208 0.14946978 0.18183579 0.18467139 0.012762294 -0.19714406 0.0042236787 -0.14548771
-0.21120326 0.19365254 0.13414662 -0.22280073 0.0010799613 -0.04148838 -0.07679286 -0.12065836
0.31854334 -0.12641555 0.04911644 0.105759144 0.12551543 0.06480386 -0.21359313 -0.16725028
0.09632718 0.018312506 -0.18202351 -0.11109594 0.2434965 0.13101001 -0.07071516 -0.049008097
-0.21159652 -0.015562249 -0.15957288 -0.15563916 -0.023786018 0.008721951 -0.026812408 0.16799633
-0.07441987 0.20313117 0.15835169 -0.17447674 -0.040565636 0.049655654 0.066963844 0.062080767
0.080416 -0.026489073 -0.16811097 0.13657796 -0.26783344 -0.05734288 -0.12377764 -0.055489518
-0.090000756 -0.100964315 -0.08831494 0.084552385 -0.24924044 -0.0066450643 0.1415877 -0.015148611
0.0014683567 -0.020042459 0.036697272 0.13637629 0.20828094 0.12425981 0.20779291 0.005825505
-0.10787797 -0.09313398 0.20667513 -0.025680982 -0.09244506 -0.16453315 -0.12971282 -0.17115566
0.021226417 0.115745366 0.19629161 -0.22428375 0.14546299 -0.24395423 0.009942829 -0.1218025
-0.03245354 0.12056065 -0.17314789 -0.13065344 0.050959095 0.00998764 -0.05361304 0.067217104
-0.12323097 -0.038916342 0.2550271 -0.08077813 0.24946518 0.0846415 -0.12000128 0.14599395
-0.080502756 -0.107400276 0.014568373 -0.20445861 0.026730826 -0.021654619 0.13674936 0.039280694
0.082515076 0.07050729 -0.08387467 -0.079669744 -0.19264233 0.09997043 0.11376934 0.09816104
-0.17354394 -0.006086772 -0.17147791 -0.12321536 -0.14381929 0.05666102 -0.3432179 0.014996214
-0.004981907 0.12887804 -0.12772885 -0.12064332 -0.13412458 0.1343373 -0.13064416 0.17443599
0.14258392 0.112974726 -0.01971237 -0.017599992 0.037880104 -0.03952328 -0.007192657 0.04880991
-0.13914753 -0.09336007 0.18199724 -0.14900489 -0.26075247 0.24670447 0.07074459 0.0104396455
-0.1738746 0.09650149 -0.122088246 -0.11074433 -0.100527376 -0.019587556 0.032543153 0.19916426
-0.017342674 0.20244215 0.14045429 -0.113162644 0.12838647 -0.11157632 -0.14393309 0.060833294
0.0875235 0.1840897 -0.051919587 0.031206189 0.06949516 -0.41373342 0.19332382 -0.16703479
0.028233081 0.022099163 -0.09030168 0.027823875 0.22447243 -0.035143513 -0.16053239 -0.012115366

layer1.bias f4 [256]
00000000: b2b2 503e 73f5 c43c fe80 453d e0fd 5e3c
00000010: 4181 14be 6725 3b3a 4fd2 09ba d23f ecbd
00000020: f298 acbc aceb 5bba 897e 28bd 48e6 a7ba
00000030: 3672 74be 2801 6c3e 28a4 b23d 7c24 373e
00000040: a02f 2dbe bfb2 44be c35e 093e 60cd 9fbc
00000050: 4a13 4d3d c9fd 9a3d d84e 3bbc b8de 34bd
00000060: ce27 2c3e 8929 293e c990 b5bd 0ecd 54be
00000070: 69b1 fcbd 4598 3b3e 0961 a63d 3ffc 3d3e
00000080: 11f4 45bd d540 4bbe ba39 6c3d c4ad 9fbd
00000090: 32d7 9cbd 80ff d13d d69b 38bc 83e2 01bd
000000a0: 2e45 833e d183 213e 3d4c 21be af67 25be
000000b0: b44f 01be a07b 29be 6201 dcbd d9ee 163e
000000c0: 8d28 f3bd 57b8 343e e60a 9a3d 0423 313c
000000d0: 1eb0 7b3d a166 6f3d 7403 263d 04a6 13be
000000e0: 208d 353d 8367 563e aa12 3e3e 15bd 00bd
000000f0: 8019 dabd 3ae8 a23d f9f7 2dbe 7556 373e
00000100: 4015 e23d beaa 223e c3c1 963c 438a 2c3e
00000110: b97c b4bd 3c8c 4abe f20b 26be b113 443e
00000120: db9e 0abe 9772 4fbe 9f6e 443d a4c7 03be
00000130: bad7 2c3c c8ec 36be 9ef3 343d 8fb6 35bd
00000140: 9d83 813d da9d e83d 6ec4 f0bd 982b 8fbd
00000150: e9dd 0fbe 349e 213e 0a90 9fbd 87f5 7d3d
00000160: 6d0a 933d 1065 46be 5172 01be 1b1b 03bd
00000170: ca51 c8bd 5f4b e13d 7000 123e 6264 d53c
00000180: 14b2 253c 68cc 9e3d 7cd0 953d 7eaf a0bc
00000190: b4f3 a9bd e4e2 ffbd 3e3a 043c 31c8 3b3e
000001a0: cc70 633c fb76 113e 3089 b53d e187 d1bd
000001b0: 5ae1 943d 173a e23d 3f89 8cbd bf91 d03a
000001c0: a058 ebbc 3a81 513d 1138 503e 57c7 57bd
000001d0: 412b 313e 7fbc 1e3e 8042 36be cafe f23d
000001e0: ada7 1d3c 8b19 0a3e ff19 5c3e f610 82be
000001f0: fa0d 14be 6a71 45bd 222f 413d df8a 173c
00000200: 5909 37be d2e9 253e 199b c5bd 2fdc 553d
00000210: e02b 3a3e fbe2 04bd 568f 183e 2318 583b
00000220: c9f2 6fbd d87d 833d 0854 b73d cdbd 173e
00000230: e5e2 03be 5e97 2e3e 60b8 adbd 1326 06be
00000240: a879 31bd 1a29 1bbe f2c7 b13d 86fe 2cbb
00000250: 9f09 45bc 3c3e 06be 5c65 033e 5889 653d
00000260: 2816 e9bc 2f73 293d ebbb 893d 4be5 1ebe
00000270: e319 03bd 2035 a7bd 5ed8 313e 4fdf d43d
00000280: b082 17be b973 383e eef0 1fbd f31d ae3c
00000290: 0d01 183d 6ef3 80bc 54a6 4a3e 39f9 f23d
000002a0: 3552 6e3d 71e2 4dbd 44b8 1d3c b8b8 dfbd
000002b0: 736e 46bd be3a cb3d 4786 2dbe 503f 223d
000002c0: c5f3 babd fd68 bf3d f288 0fbe 972c 723d
000002d0: 7186 2abd ee5b 693e c4ed bbbc 5d37 1abe
000002e0: 73a8 0fbd 26f7 3a3e 7bec a33d 9a7a e8bb
000002f0: 2ddd 1d3e 6b8a 863d edc8 91bc 99e8 e8bd
00000300: 43d9 5dbe f732 e93d cf27 103e 9622 d7bd
00000310: 7021 8dbd 3de0 ac3c be99 e9bc 1d70 0a3e
00000320: 2112 333d e8cd f23c 83d1 51be eda0 473d
00000330: 2797 9cbc cc66 813d 39fb 423e e2ac be3d
00000340: 151f 463c be11 2d3c c9cf e2bd 4f1d 3b3e
00000350: 07c8 523e c1d5 473d 9e0f 4e3e 522f 733e
00000360: ab25 ca3d 718c 743d 4bb9 143e e7be 62bd
00000370: 4c10 483d 872f 193e 2a64 6bbd 79eb ef3d
00000380: 3931 0abd 1225 ca3c ff88 183e 255d 023e
00000390: f571 193e 3b5d 243e c9b7 6dbd b38b 6c3e
000003a0: 4845 2d3e d1e2 2c3e b745 2bbe 47c7 94bd
000003b0: a538 0ebe bbe9 013d c12b 3d3e 615d c2bd
000003c0: 9882 773d 7b64 323d e891 2ebe ca84 c93d
000003d0: d52e b5bc 7c26 9abd 5808 efbd 73ad 0b3e
000003e0: f25f 9fbc 1b72 03bd 86b6 26bd fbce d83c
000003f0: 632e 8bbd 0f2c 12be ba92 b13d 88f9 ad3c
0.20380667 0.02404282 0.04821872 0.013610333 -0.14502431 0.0007139057 -0.00052574737 -0.1153561
-0.021069024 -0.0008389305 -0.0411363 -0.0012809718 -0.23871693 0.23047316 0.087227166 0.17885011
-0.16912699 -0.19208811 0.13415055 -0.01950711 0.050067224 0.07567937 -0.011432372 -0.044157714
0.1681206 0.1651975 -0.08865506 -0.20781347 -0.12338526 0.18319805 0.08123977 0.18553255
-0.048328463 -0.1984895 0.05767224 -0.07796815 -0.07658233 0.10253811 -0.011267623 -0.03171016
0.25638717 0.1577294 -0.15751739 -0.16152833 -0.1262806 -0.16551065 -0.10742451 0.1473955
-0.11872969 0.17648445 0.0752161 0.010811571 0.061447255 0.058447484 0.040530637 -0.14418799
0.04432404 0.20937924 0.18561807 -0.031430323 -0.10649395 0.0795445 -0.16989125 0.17904074
0.11039209 0.15885445 0.01840294 0.16849618 -0.088128515 -0.19780058 -0.16215494 0.19148137
-0.13537161 -0.20258556 0.04795706 -0.12869126 0.01054948 -0.17863762 0.044177644 -0.044363555
0.06323931 0.11358233 -0.11756216 -0.06990737 -0.14049496 0.15783006 -0.07791145 0.06200173
0.07179723 -0.1937449 -0.12641264 -0.03200827 -0.09781225 0.11000704 0.1425798 0.026048843
0.010113258 0.07753831 0.07315156 -0.019614931 -0.08298436 -0.12494448 0.008070527 0.18338086
0.013881873 0.14205544 0.08864057 -0.10230995 0.07269545 0.11046236 -0.06862115 0.0015912576
-0.028728783 0.05114863 0.20333888 -0.05268034 0.17301656 0.15501593 -0.17798805 0.118650034
0.009622497 0.13486306 0.21494292 -0.25403565 -0.14458457 -0.048203863 0.04716409 0.009249418
-0.1787466 0.16202477 -0.09648723 0.052211937 0.181808 -0.032443028 0.14898428 0.003297337
-0.058581147 0.06420487 0.089515746 0.14818497 -0.12879522 0.1704993 -0.08482432 -0.13100462
-0.04332891 -0.15152398 0.08680715 -0.0026396825 -0.01202622 -0.13109678 0.12831634 0.056039184
-0.028452948 0.041369613 0.06725296 -0.15517156 -0.03200711 -0.0816443 0.17367694 0.10394155
-0.14795947 0.18012895 -0.039048128 0.021254515 0.037110377 -0.015741076 0.19790012 0.11863942
0.058183867 -0.05026478 0.009626452 -0.10923904 -0.048445176 0.099233136 -0.16945754 0.03961116
-0.091285266 0.09346197 -0.14017084 0.059124555 -0.04163212 0.22788975 -0.022940524 -0.15060182
-0.035072755 0.18258342 0.080040894 -0.0070946934 0.15416403 0.0656937 -0.017796004 -0.113724895
-0.2166491 0.11386674 0.14077686 -0.105046436 -0.06891143 0.021103019 -0.028515693 0.1351933
0.04371846 0.0296392 -0.20490079 0.048737455 -0.019115044 0.06318435 0.19041146 0.093103185
0.0120923715 0.010563312 -0.11074788 0.18272899 0.20584117 0.048787836 0.20123145 0.2374852
0.09870466 0.059704248 0.14523809 -0.05535784 0.048843667 0.14959536 -0.05746857 0.11714835
-0.03373835 0.02467588 0.1489601 0.12730844 0.14984877 0.1605119 -0.0580366 0.23100166
0.1692096 0.16883399 -0.16725813 -0.07264572 -0.13888796 0.031717043 0.18473722 -0.09490467
0.06042728 0.043552857 -0.17047846 0.09839781 -0.022117058 -0.075268716 -0.11671513 0.13640384
-0.01945493 -0.03209124 -0.04070141 0.026465883 -0.06795957 -0.1427462 0.08670564 0.02123715

layer2.weight f4 [256, 256]
00000000: a0f7 85bd f8b0 ebbc 35c0 81bc cffe 95bc
00000010: c2eb 193d 3a76 633d 7398 44bd fc97 933b
00000020: 7957 5d3d 44e6 22bd 8408 b6bd bae2 f0bb
00000030: f257 8b3c 60b5 3fbc d28f 703d 7e1f 63bd
00000040: d8a3 70bd 4acf 183d ed77 eebc 16a1 b6bc
00000050: 033c de3b f1fb c7bc f8df 0abd 5190 9bbc
00000060: aa03 51bd 52d4 0cbd 4d7e c5bb e35c 52bd
00000070: 1575 063d 5c4a 04bc 615e 533d 0b59 523d
00000080: be9f 073d 10cc b93c 46bf 273d d001 cdbc
00000090: 368f 90b9 85f3 0b3d e6a7 223d 2c59 e83c
000000a0: abd2 da3c c0a8 cc3c 3629 373d 4768 2cbb
000000b0: 658f 93bc 3d8b b73d fac8 4d3d a89f 3a3d
000000c0: 89f3 173d 4714 aa3d 67cf 59bc fe41 073d
000000d0: 06e0 793d fd1d 5a3d 3ac3 903d 8aa0 56bd
000000e0: 8a10 b6bb 5228 37bd 5a7f 9b3c fe5b 08bb
000000f0: 8910 fd3b 6eb8 f5bc 57ff b23d 1f82 bbbc
00000100: 1a1d 113d a757 37bd 71fb b5bb 881d ddba
00000110: cbb7 8b3d d095 8a3b c7d0 073d f68d 02bd
00000120: 453d e43c faf7 593c e5bc 37ba 750f 3a3d
00000130: a929 10bd 3012 b0bc 058d cc3c 2ac2 2c3d
00000140: 7b64 493d 23a4 863d 24a2 073d e4bb 83bb
00000150: fd3c 883d b6dd 983d 7059 c43c a0a8 ecbc
00000160: 7e94 d4bc bdee febc dab6 51bc 5fb0 e4bc
00000170: 0258 98bc c947 be3d 8dfd 503c c9c9 2e3c
00000180: 7b95 6c3c 5a1b 813d d57d 813a cf3d 353c
00000190: a1a6 f93c 3bd3 9fbb a943 2abd 30fc 04bd
000001a0: 9c15 ac3c c1da 103d d0ca 6a3c 38fa 43bb
000001b0: 7a62 9fbc 18c8 04be 5306 50bc f415 91bc
000001c0: 6870 bc3d 98b9 b2bc a71e b6bd c4f8 683d
000001d0: 318a 38bd 1f80 4bbc 3936 103e d012 a13d
000001e0: 2a55 90bd 8c24 053c 9638 3dbc 0f88 d23d
000001f0: 4f5a 333c 175c bf3d fd31 6fbd fcaf 9cbd
00000200: 1187 c1bb ad18 a0bd b167 a3bc 8303 503d
00000210: fc18 18bd 3ce7 9cbd 5158 90bc 1517 23bd
00000220: 819a a03d 620e 08bd 9c9a b33d 4304 7e3b
00000230: 926d d03c 6bf8 083d 2a17 eb3d 4ca8 87bb
00000240: e406 80bd 2054 f23c f374 8e3c d67c 7a3d
00000250: 793f f53c 405b 163c 582e ea3c b3ac 2d3d
00000260: ed15 a63c f70c e5bc 5109 0a3d 7fdd 11bd
00000270: 21ab 553b a831 993d cb14 97bc 72bd 463d
00000280: 003e fc3d af4f 063c e9f4 f5bc a2e2 c0bc
00000290: e4a9 0a3d 403b b63d 561d 963d 7e02 73bc
000002a0: fa9e d0ba 92e3 063d 9f80 143d 143d 593d
000002b0: 642b 10bd 9cde 1ebd d2ca 903c 55f0 a43c
000002c0: 97cf 593d 5d16 52bd c176 23bd 0d38 79bc
000002d0: 10de 15bd e643 45bd 9169 963d 94f0 563d
000002e0: 2dbe 21bc afda 7cbd c7c4 823c 40bf 973c
000002f0: 0b8a e1bc 55d2 2a3d e499 38bd 7d70 4a3d
00000300: a2e6 823d fc59 5c3d ed5e 3a3d 2ab8 073d
00000310: 036c cbbc 1da8 81bc f716 ee3c 663b 8c3c
00000320: 12d3 16bd 9377 aa3c c2ab c1ba 8d7b 5d3c
00000330: 82da 363b 4593 623d 9ad9 3dbe b11e 7fbc
00000340: 32d7 473d a6b4 053d fd68 efbc 2623 863d
00000350: 9050 89bd 417e 803d 6191 85bb 4d4e 263d
00000360: e56d 2d3d 2024 b4b9 bb1f d63b b5a9 6a3d
00000370: 4856 5fbd 178e 6d3c 94c2 683d ccab 6ebd
00000380: 3657 ac3c dbc6 8a3d 54ce d4bc 10f1 073d
00000390: ed2a b1bd a39f 8a3c 58fe 283c e7a0 36bd
000003a0: f16a 2d3c 410b 38bd 384e ac39 f722 cbbc
000003b0: a5d6 e13c c94e 54bc 2a54 b5bd b01c 94bd
000003c0: 6643 ca3c dbf2 e13c 0922 8cbd 5bbf 86bd
000003d0: f00d ce3c b970 2dbc c06b 513d 5928 9fbc
000003e0: 0168 78bc 9bca 1ebd f7dc 8e3d 23f4 0b3d
000003f0: 8c35 173d 4c07 44bd df52 5c3d 652e febc
-0.06541371 -0.028770909 -0.015838722 -0.018309979 0.03757835 0.05553267 -0.04799695 0.004504202
0.0540385 -0.03977038 -0.08888343 -0.0073512467 0.017009709 -0.011700958 0.058730908 -0.055449955
-0.058750004 0.03730706 -0.02910992 -0.022293609 0.0067820563 -0.024412127 -0.033905 -0.018989714
-0.051028885 -0.034382172 -0.006027019 -0.051358115 0.032826502 -0.008074369 0.05160368 0.05135445
0.033111326 0.022680312 0.040953897 -0.025025278 -0.0002757252 0.034167785 0.0397109 0.028362833
0.026711782 0.02498281 0.044717036 -0.0026307271 -0.018012712 0.089621045 0.050240494 0.045562416
0.037097488 0.08304649 -0.0132940775 0.03302192 0.06100466 0.053251255 0.070684865 -0.052399196
-0.005556171 -0.044716187 0.018981624 -0.0020806785 0.0077229184 -0.02999517 0.087401085 -0.022889195
0.035428144 -0.044761326 -0.005553656 -0.0016869763 0.06822165 0.004229285 0.03315809 -0.031873666
0.027861247 0.013303751 -0.00070090435 0.045424897 -0.03519598 -0.021493047 0.024969587 0.042177357
0.04916809 0.06574275 0.033113614 -0.004020201 0.066522576 0.07464163 0.023968428 -0.028889
-0.025949713 -0.031119699 -0.012799943 -0.027916132 -0.018596653 0.09291036 0.012755764 0.0106682265
0.014439936 0.06304045 0.000987942 0.0110621 0.030474963 -0.0048774756 -0.041568432 -0.032467067
0.021006398 0.03536487 0.014330581 -0.002990378 -0.019456137 -0.12966955 -0.01269682 -0.017710663
0.09201127 -0.021817014 -0.08892565 0.056877866 -0.045053665 -0.012420683 0.14083184 0.07864916
-0.07047494 0.008126389 -0.011549136 0.10279857 0.010946824 0.093437366 -0.058397282 -0.07650754
-0.0059059937 -0.078172065 -0.019946905 0.0507846 -0.037133202 -0.07661292 -0.017620238 -0.039816935
0.07841969 -0.03321684 0.08769724 0.0038759864 0.025442872 0.033440035 0.114790276 -0.0041399356
-0.06251314 0.02958113 0.01738975 0.06115421 0.029937493 0.009177029 0.028586552 0.042401027
0.020274127 -0.027960284 0.03370029 -0.035611626 0.0032603221 0.07480174 -0.018442532 0.048520513
0.12316513 0.008197709 -0.030024009 -0.023545567 0.033853427 0.0889802 0.07329814 -0.014832137
-0.0015916519 0.03293187 0.036255475 0.053036764 -0.03519763 -0.038786516 0.017674837 0.02013413
0.05317649 -0.05129086 -0.039908174 -0.015211117 -0.03658873 -0.048160456 0.07344354 0.052475527
-0.009872002 -0.06173199 0.015962971 0.018523812 -0.027531644 0.041704495 -0.045068637 0.049423683
0.06391646 0.053796753 0.045500685 0.033134617 -0.024831777 -0.015827233 0.029063685 0.017118167
-0.036822386 0.02080897 -0.0014775919 0.013518226 0.0027901237 0.05531623 -0.1854004 -0.015571282
0.04878921 0.032642983 -0.029224867 0.06549673 -0.06704819 0.06274081 -0.0040761684 0.040602017
0.04234113 -0.0003435919 0.0065345443 0.05729075 -0.054525644 0.014499209 0.05682619 -0.058269307
0.02103768 0.0677621 -0.025977291 0.03318888 -0.086507656 0.016921824 0.0103145465 -0.044587042
0.010584579 -0.044932608 0.00032864674 -0.024796946 0.02756817 -0.012958237 -0.08853944 -0.07232034
0.024690341 0.027581623 -0.06842429 -0.06579467 0.02515313 -0.010585957 0.05112815 -0.019428419
-0.015161515 -0.03876744 0.069757394 0.034168374 0.0369163 -0.04785852 0.05378997 -0.031027982

layer2.bias f4 [256]
00000000: 3768 ffbb ace8 40bd b781 c0bb a2d7 073d
00000010: b747 23bd c381 0c39 2846 f8bc dc5b a43d
00000020: fd71 003d 9256 1ebd 343b 15bc 0a45 5abd
00000030: 486f 3f3d 5bad 80bc 2dac 093d cd63 8a3c
00000040: c031 063d 8d74 173d dd3f 47bd f93b 00bc
00000050: 1162 c93c 18ab 5abd cb01 543d 6172 c13c
00000060: b921 40bc 421b a43d 63be b13c 4b4f 363d
00000070: 07d6 1ebd 35a9 65bd 705a 09bd 8e39 143d
00000080: ce47 273c 0df9 953d e2f3 d9bc df64 4cbb
00000090: 4c00 44bc 8c1f 463b 1e17 71bc 5e65 f4bc
000000a0: 91be fbbc f490 27bd 29e5 89bd 2c32 45bd
000000b0: ca3e 013d ab0a 473b b7f6 5fbd 8d6d 1d3d
000000c0: fcfb c73c 18ec 703d d3b6 25bd f5f1 703c
000000d0: 11c5 123d cd83 da3c 364d 1dbd f2a5 92bc
000000e0: 030d 91bb 2d1f 3b3d 0ce0 31bb 5d4d 663d
000000f0: 25ec fdbb 50ba 483d 51e9 78bc ff97 493d
00000100: c3ca 8c3d 7787 113d e23f ef3c b4c3 65bd
00000110: 25cc b83c b103 1d3c 124b 81bd f437 453d
00000120: 6421 133d 6e76 333c a922 09bd d400 173d
00000130: 5beb 0cbd be2f 71bc ef7b ed3b 889b 5ebd
00000140: 3875 b1bc a7a8 b5bc 3917 003d 1c35 9e3d
00000150: 2161 823c 2525 893c 7ced 30bc 7ccd e8bc
00000160: edf0 083d 6a27 273d 817d 24bd 8cde e03c
00000170: 6526 17bc 0567 6c3d b262 9f3c 99ed 243d
00000180: 583f 923d 1bf3 873d 4e3e 263d f19b 12bd
00000190: 14a0 8dbd d766 efbc 1e58 cf3c db2a ac3d
000001a0: 11c2 a8ba 0d39 ab3d 565b b2bb ca2a 353d
000001b0: 286c 30bd 91b7 61bd b2f3 42bd 8156 ed3c
000001c0: 20e6 323a bd89 9a3b 1848 9b3c 9254 5cbd
000001d0: ff16 a33c ce3f 55bd 9aa9 c6bd bc42 473d
000001e0: ea00 10bd b49b 89bd f8f9 4ebd 00d7 20bd
000001f0: 9ba8 65bd d021 69bd 71bd 143d 6c98 0c3d
00000200: 3fc0 ac3c 5965 21bd 1e7c bcbc 8f37 5fbb
00000210: 48b1 463c 5b72 a1bb 50fe b2bc 478d 713d
00000220: 2cca 10bc 7661 93bc abbf 52bd a0ed b63c
00000230: e904 17bc 9b76 993d b240 71bd c08d 173d
00000240: e34d 6e3c e470 84bc cdc3 a33c aab3 883d
00000250: 6541 033d 75c0 ee3c 5bc4 2c3d 1f58 a93d
00000260: 65e3 0dbd 54b0 03bd 56d0 323d 75f3 973c
00000270: 0a02 8dbc 01b8 b53a cc9f 00bd 7e63 373d
00000280: ba07 b43c 1a5c c63c 21d7 49bb cd48 0ebd
00000290: eef5 8f3d 3697 203d e924 2cbd 79bf 023d
000002a0: 0c97 933c 5bdd af3c 1f4f 6e3b 0fd8 2d3c
000002b0: 3ec9 e7bc d8c7 4d3d dbda 263d 4d64 5bbb
000002c0: f95a 5dbc f603 26bb f5c1 92bd efa5 2c3b
000002d0: 76d7 ffbc f763 57bc adfa 15bb 90a8 293d
000002e0: 6efb 3c3d 5648 903b 2591 14bd 7dba 173d
000002f0: 755c 80bd 6c78 7a3c 519c 7c3d 65b5 963d
00000300: 074f c63b 15bd 813d 1ffe 663d 013d 80bc
00000310: d2bf a83c 77b4 7cbc a5f1 1cbd 4313 213d
00000320: 0079 a83c 157b a9bc 9164 e03b f9cc 2bbc
00000330: af0e 333b e0d7 17bd b99d ee3c 2f61 83bc
00000340: f18c da3c cfac d5bc 0e76 9abd 5445 f83c
00000350: 4ccf 9bbc 1114 1bbd 8c14 c4bb 6093 fb3c
00000360: a4d4 fe3c 3ed1 5b3c d62c 3abd 5b93 2d3d
00000370: 5d95 fdbc 6515 933c 72fd 1abc ebce 063c
00000380: 1447 0f3c e488 a8bd 7d9e 273d 95d8 253c
00000390: 2ea2 853c c17e 69bd d18f f6bb b151 8bbd
000003a0: c2b8 af3c 22c2 c0bc d75f 5e3d 9c3f c03c
000003b0: 67ed a53d eb23 57bd 77e3 ad3b 39e4 79bd
000003c0: fae4 303d 1a94 d4bb 8b51 843d c420 ba3a
000003d0: 4f4a be3b dabd cbbc e18a a23c 3ea0 aabc
000003e0: 1b8c 74bd 59c3 193d 8023 c23d e684 9c3c
000003f0: 9904 223d e351 8ebc 5f03 f43b ae13 5fbd
-0.007794406 -0.047096893 -0.005874838 0.033164628 -0.039863314 0.0001339978 -0.03030689 0.08025333
0.031358708 -0.03865678 -0.009108353 -0.053288497 0.046736985 -0.015707662 0.033611465 0.016893292
0.03276229 0.036976386 -0.04864489 -0.007826799 0.024582895 -0.053385824 0.051759522 0.02361411
-0.01172679 0.080130115 0.021697229 0.044509213 -0.03877833 -0.05606957 -0.033533514 0.0361877
0.010209991 0.07322893 -0.02660555 -0.0031188054 -0.011962961 0.0030231206 -0.014714984 -0.029833492
-0.030730518 -0.040909722 -0.06733162 -0.04814355 0.03155402 0.003037135 -0.054678645 0.038434554
0.024412148 0.058818907 -0.040457558 0.014706125 0.03583247 0.026674176 -0.038403712 -0.017901395
-0.0044266 0.04568403 -0.00271416 0.056226123 -0.007749098 0.049005806 -0.015192346 0.04921722
0.06874611 0.03552958 0.029205266 -0.05609484 0.022558281 0.0095834 -0.06313147 0.048149064
0.035920516 0.010953529 -0.03348032 0.036866024 -0.03440414 -0.014720855 0.00724744 -0.054347545
-0.02166234 -0.022175146 0.031272147 0.077249736 0.015915455 0.016741345 -0.010798808 -0.028418295
0.03343289 0.040809073 -0.040158752 0.027449869 -0.009225463 0.057715435 0.019456241 0.040265653
0.07140988 0.066381656 0.040586762 -0.03579325 -0.06915298 -0.029223843 0.025310572 0.084066115
-0.0012875219 0.08360491 -0.005443017 0.04423026 -0.043071896 -0.055106703 -0.047595687 0.028971912
0.00068244524 0.0047161267 0.018955275 -0.05379159 0.019908426 -0.052062802 -0.09700318 0.048647627
-0.03515712 -0.06719151 -0.050531358 -0.03926754 -0.056068998 -0.05691701 0.036313478 0.03432505
0.021087764 -0.039403293 -0.023008402 -0.0034060215 0.012127228 -0.0049269623 -0.021849781 0.058972623
-0.008837264 -0.017990809 -0.05145232 0.022330105 -0.009217479 0.07493325 -0.05889959 0.037000418
0.014544937 -0.016167112 0.019990826 0.06674893 0.032044787 0.029144505 0.042179447 0.08268761
-0.03464069 -0.03215058 0.043655716 0.018548707 -0.017212886 0.0013864042 -0.031402394 0.044772618
0.02197634 0.02421384 -0.0030798393 -0.034737397 0.07029329 0.039206706 -0.042027388 0.031920884
0.01801636 0.021467855 0.0036363078 0.010610594 -0.028294202 0.050239414 0.04073606 -0.0033476532
-0.013510459 -0.002533195 -0.071659006 0.0026344021 -0.03123067 -0.013146392 -0.002288501 0.04142052
0.04613822 0.0044031544 -0.036271233 0.037043083 -0.06267635 0.0152875 0.061672512 0.07358817
0.0060519013 0.06334893 0.056394693 -0.015654089 0.02059928 -0.015423886 -0.038316388 0.03932501
0.02056551 -0.020688573 0.006847926 -0.010485881 0.0027321985 -0.03707111 0.029127942 -0.016037552
0.026678534 -0.026083378 -0.075420484 0.030306496 -0.019019745 -0.037860934 -0.0059838947 0.030709922
0.031107254 0.013416586 -0.045452915 0.042376857 -0.030955011 0.017954538 -0.00945984 0.008228044
0.008744974 -0.08229235 0.04092263 0.010122438 0.016312685 -0.057005648 -0.0075244685 -0.06802691
0.021450404 -0.02353007 0.05429062 0.023467831 0.081019215 -0.05252449 0.005306657 -0.061008666
0.04318712 -0.0064873816 0.064608656 0.0014200439 0.005807198 -0.024870802 0.019841613 -0.020828363
-0.059703927 0.037539814 0.09479427 0.01910634 0.039555166 -0.017373031 0.007446691 -0.054462127

layer8.weight f4 [5, 256]
00000000: f42e 4c3d 5fec 873d c1ee 843d 0423 b8bd
00000010: 9353 483e f32f d23d e6f6 013e 55f1 02be
00000020: aa8e 09be 44b7 aabd b027 90bb e42d 9a3d
00000030: 2491 85bd 08bd b33d 427c 1ebd a73a ca3b
00000040: 47f1 a33d b6e7 9e3c 3659 0e3d 5109 953d
00000050: 88ac 65bd c8d8 4abc 2bf6 5d3d 0fba e9bc
00000060: a9b0 993d 4d60 d6bd 4b0d 03be 9860 9abd
00000070: ef66 01bb 4b70 eb3d af4b c33d c772 41be
00000080: 8353 203d 608c 77bd 5311 a53d 625c 0a3d
00000090: f51c e33b ad4a 613d 4c47 8dbc 96cf dbbb
000000a0: c510 e6bd c389 7d3d 4cb1 d03d 29e0 68bd
000000b0: 3dde be3d 5a32 bdbd 5d02 d7bc 22c3 083e
000000c0: 3bae 9ebd b92c 8fbc 87ed f23d 33f2 f9bb
000000d0: 6c64 21bd 8945 053e 130c f13d b76d 10be
000000e0: a975 a13d 3a9c 26bd 9d6a 4ebd 7a1d 47bd
000000f0: 1bc4 923b 7ea3 623d 556c 123e 19df 94bd
00000100: 0126 32bc 6978 ba3d d98f 993d fe65 ad3b
00000110: 0430 253e f94b c73d 0939 7a3c ec4d ddbc
00000120: 9ad0 45bd 8b98 26be c222 09bc 294c d03d
00000130: e73a 2bbd c639 21bc 7fcf b03d df88 f93c
00000140: 9c42 3bbd 65cc 643d 799c 03bd 7f97 60bd
00000150: 4f3d 1a3d 191c 513a 2d95 67bd 9043 d0bd
00000160: 5fea febc 2b51 9fbd c902 023b 6737 8d3c
00000170: 4731 35bd 814f cbbc 1d8b c1bc d38f 1cbe
00000180: 4964 b0bd 188a 4b3d 6b90 cf3d d462 363d
00000190: 6a28 933d a70c 013e da71 1c3e 24e0 0fbe
000001a0: 63a1 783d 7566 7ebd de29 d03d 2ef5 1fbd
000001b0: c949 373d dd07 3bbd 790d e6bb 5011 b4bc
000001c0: 92a2 e13b 642d 06be 83d2 c0bd 3b85 073e
000001d0: 538a 283d 90aa 0f3e 74fd 66bd 9230 f8bd
000001e0: aafa 003e cae6 fe3c 2e38 223e 2206 eebc
000001f0: ce86 47bd 862e c53d 2765 b13a 2a50 83bd
00000200: ac55 81bd 6305 8c3d 594c b7bd e904 fabd
00000210: c405 8abb 9fc8 6fbd 038a 713d 7d1f a6bd
00000220: 9435 ea3d 5a86 403e b448 cd3d 18a7 983d
00000230: 4b14 863d 64dd 48bd c04c 01bc 8bd5 16bd
00000240: fa4a 35bd 4a4f 9d3d c4c4 3a3b 0644 3c3d
00000250: e400 b9bc 3edf 85bd 205a b73d 5b9c b2bd
00000260: 00f1 543d 5e67 f23c 9d24 7cbd 3349 493d
00000270: 8f05 22be a18b 683d 8516 203e ca0a cdbd
00000280: 73fe 95bd 4250 88bd 7866 043e 07ce d83d
00000290: 7817 7abd e469 123d d0fe d33c 1c76 bd3d
000002a0: c934 d63d 79f2 2e3d 3011 e13d 85d7 a9bd
000002b0: cafd 913d 9c92 67bd 0557 4fbd 22d8 debd
000002c0: d33f 323d b244 903d a443 ad3d bcbb 9f3d
000002d0: e003 b6bd d124 933d c2a1 0f3d 430a 08bc
000002e0: a2ec 7fbc abcb 1fbe 7ff3 6f3d 9bc6 9abd
000002f0: 44e3 613c a46b 44bd c357 41be 9423 1fbd
00000300: 8733 b4bc 40cc 13bd 3ff0 c4bd fd71 073d
00000310: 4f9f 7e3c e6f4 f23d f9fd 1fbe 4b68 5dbd
00000320: 4291 133e bbcf 063e c3c6 383c 07ae 4abd
00000330: 3684 5ebd 4dcc 39bd 60d1 743d d833 503d
00000340: e072 1cbd ff82 fc3c 0dee e63d 0cd4 bcbd
00000350: 47eb 5f3d f5b0 0f3e b6a4 ad3d dd90 933d
00000360: 5fe1 2cbd ea37 4f3d 9c3c e13d ca11 933d
00000370: ebe8 373c 499b d03c dc51 5c3d 1cae 6c3d
00000380: 3590 07be cf08 533d 8f6e 9e3d b7e1 81bd
00000390: 8dbf 20bd 3407 3b3c 21de 313e bf77 4ebc
000003a0: c7e2 653d c759 1cbc 936f 36bd 0328 623d
000003b0: 686a 07be c3f0 dd3b 5553 b63d 03c8 723d
000003c0: 135f e83d cc24 9f3d 2651 a43d cf81 743c
000003d0: 7f41 5a3d d536 f33d acc8 283e 0015 2bbd
000003e0: 9b70 89bb d4f0 ae3d 5235 6bbd 4ef0 323d
000003f0: 3578 76bd f3ba 073e 033e 973b 64a9 d538
0.049849465 0.06636881 0.06490851 -0.08991054 0.19563131 0.10263052 0.1269184 -0.12787373
-0.13433328 -0.083357364 -0.0043992624 0.07528284 -0.06521824 0.08776289 -0.03869272 0.0061715427
0.080050044 0.019397598 0.034753047 0.072771676 -0.05607274 -0.012380786 0.054189842 -0.028531102
0.075043984 -0.10467587 -0.1279804 -0.07537955 -0.001974519 0.114960276 0.0953592 -0.1889144
0.039142143 -0.060436606 0.08059945 0.03377951 0.006930942 0.055002857 -0.017245911 -0.006708096
-0.11233667 0.061898958 0.10190067 -0.0568544 0.09319732 -0.092381194 -0.026246244 0.13355687
-0.077480756 -0.01747738 0.11861711 -0.0076277493 -0.03940241 0.13014807 0.11769881 -0.14104353
0.0788377 -0.040676333 -0.050394643 -0.048612095 0.004478944 0.0553317 0.14299138 -0.07269115
-0.010873319 0.09104998 0.0749814 0.0052916994 0.16131598 0.097312875 0.015272387 -0.027014695
-0.04829464 -0.16269128 -0.008370103 0.101707764 -0.04180422 -0.009840434 0.08633327 0.030460773
-0.04571782 0.05585899 -0.032131646 -0.054831978 0.037656125 0.0007976904 -0.05653875 -0.101691365
-0.031117616 -0.077791534 0.0019838086 0.017238332 -0.044236448 -0.024818184 -0.023625905 -0.1528924
-0.08612878 0.049692243 0.101349674 0.044527844 0.07185443 0.12602483 0.15277806 -0.14050347
0.060700785 -0.06210943 0.101642355 -0.03905218 0.0447481 -0.045661796 -0.007020649 -0.021980911
0.006885835 -0.13103253 -0.09415152 0.13234417 0.04114754 0.14029908 -0.056394055 -0.12118639
0.12595621 0.031115908 0.15841743 -0.029055659 -0.048712544 0.09628014 0.0013534174 -0.064117745
-0.06315169 0.06836965 -0.08950109 -0.12207968 -0.004212113 -0.058540937 0.05896951 -0.08111475
0.114360005 0.18801251 0.10023633 0.074537456 0.06546839 -0.04903926 -0.007891834 -0.036824744
-0.044260956 0.07681139 0.002849863 0.04596331 -0.022583432 -0.06536721 0.08952737 -0.08721229
0.051987648 0.029590305 -0.061558355 0.049142074 -0.15822433 0.056773786 0.1563359 -0.100118235
-0.07323923 -0.06655933 0.12929714 0.105861716 -0.061057538 0.035745516 0.02587834 0.09251043
0.10459287 0.04271171 0.109896064 -0.0829306 0.071284845 -0.056536302 -0.050620098 -0.10881068
0.0435179 0.070443526 0.08460167 0.07799479 -0.08887458 0.071847565 0.035066374 -0.008303228
-0.0156203825 -0.15605037 0.058581825 -0.07557412 0.0137870945 -0.047954217 -0.18881135 -0.03885229
-0.021997226 -0.03608346 -0.09616136 0.033067692 0.015540912 0.11863117 -0.15624227 -0.05405454
0.1441088 0.1316518 0.011277857 -0.04948237 -0.054325305 -0.045360852 0.059769988 0.050830692
-0.03819549 0.030824183 0.11275873 -0.09220132 0.054667737 0.14032348 0.08478682 0.07205365
-0.042207118 0.050590433 0.109978884 0.07181127 0.011224966 0.02546467 0.053789005 0.05778323
-0.13238604 0.051522072 0.07735931 -0.0634188 -0.039245177 0.011415292 0.17369892 -0.012601792
0.056124475 -0.009542889 -0.04454 0.05521394 -0.13224185 0.006773086 0.08902613 0.059272777
0.11346259 0.0777069 0.0802329 0.014923527 0.05328512 0.11875693 0.164828 -0.041768074
-0.004194332 0.08542028 -0.057423897 0.043686204 -0.060173232 0.13254909 0.0046155467 0.00010188183

layer8.bias f4 [5]
00000000: 3483 79bd 5e5c 56bd 100d a83c efa3 1c3d
00000010: e2e8 ddbc
-0.06091614 -0.052334182 0.020514041 0.038242277 -0.027088586
