models/model_test.pth (torch, 5039 bytes, 6 tensors)

layer1.weight f4 [16, 21]
0	0x3f0f98fb	0.56092805
1	0xbea275c8	-0.31730485
2	0x3e3a4de5	0.18193777
3	0x3e81d37d	0.25356665
4	0xbeae24b5	-0.3401238
5	0x3ccea9e0	0.025227487
6	0x3d9e2648	0.07722145
7	0xbd89e78a	-0.06733616
8	0xbdc346fc	-0.095350236
9	0xbda3f658	-0.08005971
10	0xbdc74e6f	-0.09731757
11	0x3d661045	0.05616786
12	0xbe9dfa4c	-0.30855024
13	0x3e633612	0.22188595
14	0xbe135df8	-0.14391315
15	0x3e50259d	0.20326848
16	0xbe10b480	-0.14131355
17	0x3e9a7421	0.30166724
18	0xbe1772d6	-0.147899
19	0x3e7dcf17	0.2478603
20	0xbea8ad8f	-0.32944915
21	0x3e863331	0.2621093
22	0xbe911acc	-0.28340757
23	0x3e06d6e0	0.13167906
24	0x3e6f0574	0.23341924
25	0xbe737dcc	-0.23778456
26	0xbd8833e9	-0.06650526
27	0x3e73e0a2	0.2381616
28	0xbd8d6b81	-0.0690527
29	0xbe00c04b	-0.12573354
30	0xbcf6809c	-0.030090623
31	0xbdc0deaa	-0.0941747
32	0xbe37b2e8	-0.17939341
33	0x3c547d37	0.012969307
34	0xbd8c55fc	-0.06852338
35	0xbd31917c	-0.043351635
36	0xbd85dfe8	-0.06536847
37	0x3ca87785	0.020564804
38	0xbe299faf	-0.1656482
39	0x3c44f0d2	0.012020307
40	0xbe3e4f80	-0.18585014
41	0x3e12d646	0.14339551
42	0x3e9803d0	0.2969041
43	0xbd1e9dea	-0.038724817
44	0xbe37e839	-0.1795968
45	0xbf4b5358	-0.7942405
46	0xbd8266ea	-0.063672855
47	0xbdf69506	-0.12040143
48	0x3d42eb53	0.047587704
49	0x3ce3099a	0.02771454
50	0xbe373b34	-0.17893678
51	0x3e5801fb	0.21094505
52	0x3c27a2b3	0.010231662
53	0x3ec90c89	0.39267376
54	0xbea9cac6	-0.33162516
55	0x3f308909	0.689591
56	0xbd5acd3f	-0.053418394
57	0x3ea567f3	0.3230587
58	0xbed137af	-0.40862796
59	0x3e83760b	0.25675997
60	0x3e86fd2a	0.26365024
61	0x3ec4de0e	0.38450664
62	0xbe6afc54	-0.22947818
63	0x3c794119	0.015213274
64	0xbd9dd86c	-0.07707295
65	0xbe7f81e0	-0.24951887
66	0x3edeb947	0.4350073
67	0x3bc704b6	0.0060735596
68	0xbd545540	-0.051839113
69	0xbf29bc99	-0.663034
70	0xbdd2709d	-0.102753855
71	0x3e1a0cdf	0.15043972
72	0x3ee9c828	0.4566052
73	0x3d6f1cb4	0.058376983
74	0xbbb431e5	-0.005499112
75	0x3dcbd10a	0.099519804
76	0x3d25c837	0.040474143
77	0xbce1c4bc	-0.02755963
78	0xbe477bfb	-0.19480889
79	0x3e0c365b	0.1369261
80	0xbe67ddec	-0.2264325
81	0xbb73bbf5	-0.0037190889
82	0xbb9f5f5b	-0.004863662
83	0x3d06cbf9	0.032909367
84	0x3f2cb002	0.67456067
85	0xbeaa577b	-0.33269867
86	0x3e33a9e7	0.17545281
87	0x3e77ce6d	0.24199839
88	0xbea6c75c	-0.32573974
89	0xbd35b449	-0.044361386
90	0xbb910461	-0.004425571
91	0xbc0c9d75	-0.008582463
92	0xbd6709ce	-0.056405835
93	0xbdf4edb7	-0.11959403
94	0xbd626615	-0.055273134
95	0xbd2c61f6	-0.04208561
96	0xbe7ce1b6	-0.24695477
97	0x3df1e94c	0.11812076
98	0xbe4ecb84	-0.20194823
99	0x3d99a2fa	0.075017884
100	0xbdd2e38f	-0.102973096
101	0x3e1ce251	0.15320708
102	0xbde39b2d	-0.11113582
103	0x3d3fe2b4	0.04684706
104	0xbe743693	-0.23848943
105	0x3ee99d04	0.45627606
106	0xbe8500a0	-0.2597704
107	0x3e05eae9	0.13077892
108	0x3e40dcf5	0.18834288
109	0xbe6e5499	-0.23274459
110	0xbceb670c	-0.02873566
111	0xbb8d93fe	-0.0043206206
112	0x3b728f45	0.0037011665
113	0xbd78996b	-0.060693186
114	0xbd61aa3c	-0.05509399
115	0xbd20759d	-0.039174665
116	0xbcfa2b92	-0.030538354
117	0xbe321c65	-0.17393644
118	0x3de77c1f	0.11302971
119	0xbe0925b2	-0.13393286
120	0x3da9d5ec	0.082927555
121	0xbdad74f7	-0.08469575
122	0x3dd3523e	0.10318421
123	0xbda2f93d	-0.07957695
124	0x3d87ac75	0.066246904
125	0xbe2f8c01	-0.17143251
126	0xbc221b71	-0.009894238
127	0x3c9d4044	0.019195683
128	0xbbd5f46c	-0.0065293815
129	0xbc17ad9b	-0.009257699
130	0x3c899572	0.016794894
131	0x3c0bff50	0.008544758
132	0xbc98f910	-0.01867345
133	0x3ca67291	0.020318301
134	0x3c834e73	0.016028618
135	0xbba985ea	-0.0051734345
136	0x3c882d69	0.016623216
137	0xbb3f5185	-0.0029192877
138	0xbc274436	-0.010209134
139	0xbb678e18	-0.0035332497
140	0x3c88f89b	0.016720107
141	0x3bc6c77a	0.00606626
142	0x3bc313e8	0.0059533007
143	0x3a7e3656	0.0009697428
144	0xbc3b67d7	-0.011438332
145	0xbc5fc443	-0.013657632
146	0xbc14d3b3	-0.009083676
147	0xbcb69ce6	-0.022291612
148	0xbc28dc0c	-0.0103063695
149	0x3c401301	0.011723281
150	0xbc18c190	-0.009323493
151	0xbc4c8aa4	-0.012484226
152	0xbba9f058	-0.005186122
153	0xb9738fc8	-0.00023227849
154	0x3c1d2d29	0.009593287
155	0x3bd168cd	0.006390667
156	0xbb90f2b6	-0.0044234646
157	0x3c585159	0.013202989
158	0x3c195f8d	0.00936116
159	0x3cb59ea6	0.022170376
160	0xbb512727	-0.0031914206
161	0xbc863f00	-0.016387463
162	0x3ca7dafb	0.02049016
163	0xb8280e35	-4.0067553e-05
164	0x3c54687f	0.012964367
165	0x3b505978	0.0031791609
166	0x3c9c63b4	0.01909051
167	0xbb59c32a	-0.00332279
168	0x3f03f7a3	0.5154974
169	0xbe93c185	-0.2885858
170	0x3e8ab7db	0.27093396
171	0xbeaa79b7	-0.33295986
172	0xbe9e7318	-0.30947185
173	0xbe2b3167	-0.16718064
174	0xbd6c758a	-0.05772928
175	0x3e1efa6a	0.15525213
176	0x3c00e996	0.007868191
177	0x3ee3a068	0.44458318
178	0x3dfac199	0.12243957
179	0xbe76b2ec	-0.24091691
180	0xbe8e7584	-0.27824032
181	0x3e2a3da0	0.1662507
182	0xbe9711a0	-0.29505634
183	0xbcc16acb	-0.023610493
184	0xbee0a8e8	-0.43878865
185	0x3f01fc09	0.507752
186	0xbe9ee909	-0.31037167
187	0x3e691466	0.22761688
188	0xbee3d0b6	-0.4449517
189	0x3edd9ae6	0.4328224
190	0xbe8bb6cd	-0.27287903
191	0x3ddb4db3	0.10708179
192	0x3e921b22	0.28536326
193	0xbe5abba7	-0.21360646
194	0xbc0218da	-0.007940495
195	0x3d96ad32	0.07357253
196	0xbb873ce2	-0.004127131
197	0xbd475dc0	-0.04867339
198	0xbd3fd988	-0.046838313
199	0x3b0889e7	0.002083415
200	0xbdc8e797	-0.09809797
201	0xbe53a0cc	-0.20666808
202	0x3c110eb5	0.008853604
203	0xbe19cd31	-0.1501968
204	0x3a0d55d4	0.00053915125
205	0xbdaddbfa	-0.08489223
206	0x3d6736a2	0.056448586
207	0xbdc43838	-0.095810354
208	0xbd178ccf	-0.03699952
209	0xbd663ba3	-0.056209218
210	0x3edc8c15	0.43075624
211	0xbe99c45c	-0.30032623
212	0x3e1a942c	0.15095586
213	0x3e981af6	0.2970807
214	0xbe8e89fc	-0.2783965
215	0xbd164dc5	-0.03669526
216	0x3e0f07c8	0.13967812
217	0x3c1116e6	0.008855557
218	0xbdf47572	-0.119364634
219	0xbd3daccb	-0.046307366
220	0xbd2b46d3	-0.04181559
221	0xbddf6c2f	-0.10909306
222	0xbe204312	-0.15650585
223	0x3c24ab72	0.010050641
224	0xbe104886	-0.14090165
225	0xbc4eec1b	-0.012629534
226	0xbd998ba0	-0.074973345
227	0xbc8847e7	-0.016635848
228	0xbddeae3c	-0.10873076
229	0xbda50001	-0.08056641
230	0xbad077fe	-0.0015904901
231	0x3f334272	0.7002326
232	0xbecfe872	-0.4060703
233	0x3e4155c7	0.18880378
234	0x3e7fc898	0.24978864
235	0xbeb693be	-0.35659593
236	0xbd001a28	-0.031274945
237	0xbcb8c2ec	-0.022553883
238	0xbda92cf0	-0.08260524
239	0xbdc73391	-0.097266324
240	0xbe0e06cc	-0.1386978
241	0xbdea210e	-0.11432086
242	0x3d147dab	0.03625266
243	0xbe512005	-0.2042237
244	0x3e820220	0.25392246
245	0xbe2ddb4a	-0.16978183
246	0x3e365160	0.1780448
247	0xbda38c85	-0.07985786
248	0x3ea1e6e7	0.31621477
249	0xbe0cec82	-0.13762096
250	0x3e6f48ae	0.23367569
251	0xbe6c9893	-0.23105077
252	0x3e996a74	0.2996403
253	0xbbe8c510	-0.00710357
254	0xbe81a668	-0.2532227
255	0xbdfad8cc	-0.12248382

layer1.bias f4 [16]
0	0x3de9603c	0.113953084
1	0x3e38d472	0.18049791
2	0x3e4c2545	0.19936092
3	0xbcbe7aa5	-0.02325184
4	0x3e3e9839	0.18612756
5	0x3e198043	0.14990334
6	0xbc8d9038	-0.017280683
7	0xbd045547	-0.03230789
8	0x3c80730b	0.015679857
9	0x3e29b975	0.16574652
10	0x3e437561	0.19087745
11	0x3e125c6e	0.14293072
12	0x3e5764b1	0.21034504
13	0x3e5a9779	0.21346845
14	0xbcba82b1	-0.022767397
15	0xbc876aee	-0.01653048

layer2.weight f4 [16, 16]
0	0x3ea1dc4a	0.3161338
1	0x3ea95052	0.33069092
2	0xbf1dd050	-0.61645985
3	0x3ebab21e	0.36464018
4	0x3ea0cf74	0.31408274
5	0x3e41574c	0.18880957
6	0x3c83c332	0.016084287
7	0x3a96805b	0.0011482345
8	0x3f068bdc	0.5255716
9	0x3e8de386	0.2771265
10	0x3eb196be	0.3468532
11	0x3e9abbf7	0.3022153
12	0x3e827ee7	0.25487444
13	0x3f077eeb	0.52928036
14	0xc078d56f	-3.888027
15	0xbbedbbe5	-0.007255065
16	0xbc85ce2c	-0.016333662
17	0xbc7b58ca	-0.015340993
18	0x3b22951c	0.0024808114
19	0xbbb9c038	-0.005668666
20	0xbb846139	-0.00403991
21	0xbc4dfeb4	-0.012572933
22	0xbc9b9e75	-0.018996457
23	0xbbb75a49	-0.0055954796
24	0x3caa2d86	0.02077366
25	0xbc8356cb	-0.016032597
26	0xbc5c3f1b	-0.01344278
27	0xbc9d67ff	-0.019214628
28	0xbcbb7b34	-0.022885896
29	0xbcb827fc	-0.022480004
30	0x3bf27c52	0.007400074
31	0xbc3fbe46	-0.01170308
32	0x3c24ab20	0.010050565
33	0xb9e3618b	-0.0004336949
34	0x3c6adff1	0.014335618
35	0xbc587832	-0.013212251
36	0xbc91aaab	-0.017781576
37	0xbc89c734	-0.01681862
38	0x3c5205d5	0.012818773
39	0x3b6804c5	0.0035403233
40	0xb9e35c70	-0.00043365685
41	0xbaf78488	-0.0018884102
42	0x3c0e3fe9	0.00868223
43	0xbc776b9b	-0.015101339
44	0x3b2294c1	0.0024807903
45	0x3c5ffd1f	0.013671189
46	0xbbc8e6d2	-0.0061310316
47	0xbc8cfe50	-0.01721111
48	0xbb9f5c92	-0.00486333
49	0xbc98bd7d	-0.018645043
50	0xbc4f65b0	-0.0126585215
51	0xbc604464	-0.013688181
52	0x3bf8b1e3	0.007589565
53	0xbc7c39ac	-0.015394609
54	0xbac2172e	-0.0014807933
55	0xbc588b80	-0.013216853
56	0xbca39c49	-0.019971984
57	0xbc2d204b	-0.010566781
58	0xbce1a527	-0.027544571
59	0xbc612411	-0.013741509
60	0x3ca4cc02	0.02011681
61	0xbc9c6d01	-0.019094946
62	0x3bea66fb	0.0071533895
63	0xba221b4a	-0.0006183876
64	0xbcce7469	-0.025201993
65	0xbde199dd	-0.11015675
66	0x3d462917	0.04837903
67	0x3d8ae242	0.067814365
68	0x3c75b3ec	0.01499651
69	0xbd0aeaa4	-0.033915177
70	0xb9ca41bf	-0.00038577427
71	0xbad05536	-0.0015894535
72	0xbd7b691a	-0.06137953
73	0x3c4a86bd	0.012361226
74	0xbc5eba2e	-0.013594193
75	0xbc33b9c9	-0.010969588
76	0xbc0b4a45	-0.008501594
77	0xbd330c3c	-0.04371284
78	0xbb55487d	-0.0032544427
79	0x3c276e91	0.010219232
80	0x3ea3fc2a	0.32028323
81	0xbdbff3fa	-0.09372707
82	0xbf4b5960	-0.7943325
83	0x3de16bd0	0.11006892
84	0x3e73dd0e	0.23814794
85	0x3e193408	0.14961255
86	0xbcb29d8a	-0.021803636
87	0xbc0c5751	-0.00856574
88	0x3f13f3a4	0.5779364
89	0x3dc31592	0.095255986
90	0x3d3cc37f	0.046084877
91	0x3e9e87c9	0.3096297
92	0x3e49d64e	0.19710657
93	0x3f16279a	0.5865418
94	0xc06c773c	-3.6947775
95	0x3a99ed03	0.0011743609
96	0xbe401af6	-0.18760285
97	0xbac72254	-0.0015192726
98	0xbc81379b	-0.015773585
99	0xbe3d3777	-0.1847819
100	0xbd2bc5e9	-0.04193679
101	0xbc96ac96	-0.018392842
102	0x3c655d89	0.013999351
103	0xbc845b36	-0.016156774
104	0x3c57c3fb	0.013169284
105	0xbd5e196e	-0.05422347
106	0xbcf0a677	-0.029376252
107	0xbd9e9716	-0.07743661
108	0xbdf5056d	-0.119639255
109	0xbe22135b	-0.15827696
110	0x3e7b80a5	0.24560793
111	0x3ca4c935	0.020115474
112	0xbe6143d0	-0.21998525
113	0xbb9b5e9c	-0.004741503
114	0x3cc95a64	0.024579234
115	0xbef5cd00	-0.48007965
116	0x3d328f40	0.043593645
117	0x3bf76036	0.007549311
118	0x3c87fa45	0.01659883
119	0x3c7d09f0	0.015444264
120	0xbf967db8	-1.1757116
121	0x3de49e05	0.11162952
122	0x3d73f3a4	0.059558526
123	0xbe994f72	-0.29943424
124	0x3f9eae04	1.2396855
125	0xbda89985	-0.082324065
126	0x3f95fd87	1.1717995
127	0x3bc63b2e	0.0060495352
128	0xbd044ffd	-0.032302845
129	0xbbce734e	-0.0063003665
130	0xbb95856c	-0.0045630243
131	0xbc9603b3	-0.01831231
132	0x3c8645c7	0.016390694
133	0xbc6a36a6	-0.014295256
134	0x3c460ff2	0.012088763
135	0x3bfb993f	0.0076781805
136	0xb94e46bc	-0.00019672042
137	0x3bd76492	0.006573268
138	0x3a40d431	0.0007355838
139	0xb9db44b4	-0.00041822123
140	0x3b049fda	0.002023688
141	0x3bfc4b54	0.0076994095
142	0x3bb69c53	0.0055728345
143	0x3c927bdf	0.017881332
144	0x3e6ffb6d	0.23435755
145	0x3e7503aa	0.23927179
146	0xbf14778b	-0.5799491
147	0x3e8b1cfc	0.2717055
148	0x3e6026fb	0.2188987
149	0x3e1c3601	0.15254976
150	0x3cc7da6b	0.024396142
151	0xbc4190e6	-0.011814332
152	0x3e9769fe	0.29573053
153	0x3e5d4e45	0.21611889
154	0x3e6a7e53	0.22899751
155	0x3e55492a	0.20828691
156	0x3e3f5a9a	0.18686906
157	0x3ea44514	0.32083952
158	0xbfa9490c	-1.3225417
159	0xbc7de6ba	-0.015496904
160	0xbcf7ff61	-0.030273141
161	0x3c7b8561	0.015351624
162	0xbc8aebf3	-0.016958212
163	0xbce65c5f	-0.028120218
164	0xbc6c8210	-0.014435306
165	0xbc5fa76c	-0.013650756
166	0xbc9a7272	-0.0188534
167	0xbcaaae10	-0.020834953
168	0xbcc52eb2	-0.024070118
169	0x3b363aa9	0.002780596
170	0xbcadbfe3	-0.021209663
171	0xbc9af94b	-0.0189177
172	0xbbac44ad	-0.00525721
173	0xbc94b00c	-0.018150352
174	0xbcae8778	-0.02130483
175	0x3c65227a	0.013985271
176	0x3ecbd694	0.39812148
177	0xbdb68b0a	-0.08913238
178	0xbf4bed1b	-0.7965867
179	0x3e9744f6	0.295448
180	0x3e92a41d	0.28640833
181	0x3e4c06fc	0.1992454
182	0x3cb88bac	0.022527538
183	0xbc542024	-0.012947116
184	0x3f1e7bc1	0.61907583
185	0x3e00e528	0.12587416
186	0x3db24e69	0.08706362
187	0x3e9a1a2a	0.30098087
188	0x3e76ca01	0.24100496
189	0x3f399c85	0.72504455
190	0xc095032d	-4.6566377
191	0xbbe4dc95	-0.0069843032
192	0x3e92b35c	0.28652465
193	0x3e9293f3	0.286285
194	0xbf0b5cf3	-0.54438704
195	0x3eb8437d	0.3598899
196	0x3e766a47	0.24063979
197	0x3e2abb45	0.16673
198	0x3c2f6a5e	0.010706512
199	0xbc50692c	-0.012720387
200	0x3ec913a2	0.3927279
201	0x3e6c4e7e	0.23076817
202	0x3e973ce0	0.2953863
203	0x3e8e65de	0.27812093
204	0x3e5827e7	0.21108972
205	0x3ef0d545	0.47037712
206	0xc00a4576	-2.1604896
207	0xbbcc1c69	-0.0062289727
208	0x3b549c89	0.0032441935
209	0xbb307310	-0.0026924051
210	0x3c02fe85	0.0079952525
211	0xbb540ae1	-0.0032355117
212	0x3c4db8c1	0.012556256
213	0xbc05b518	-0.008160852
214	0x3c8f2c29	0.017477112
215	0x3c27cc88	0.010241635
216	0x3c939829	0.018016892
217	0xbc472aa2	-0.012156161
218	0x3c8479bd	0.01617133
219	0xbc818a80	-0.015813112
220	0xbc8f78e7	-0.017513705
221	0x3c851974	0.016247489
222	0xbca0a57a	-0.019610155
223	0x3ca569e3	0.020192092
224	0xbeae962a	-0.3409894
225	0x3bd53356	0.006506364
226	0xbb0551de	-0.0020342986
227	0xbead285f	-0.33819863
228	0xbcb6a017	-0.022293134
229	0xba2aeb8f	-0.00065200863
230	0x3cae9e8a	0.021315832
231	0xbb9094f1	-0.0044122864
232	0xbe99f2bb	-0.30068
233	0x3de275ab	0.110576
234	0x3d800c73	0.062523745
235	0xbe030940	-0.12796497
236	0xbecc3ad6	-0.39888638
237	0xbe0f5e3c	-0.14000791
238	0x3ef4711b	0.47742543
239	0xbc0467b3	-0.008081364
240	0xbc5ac7e6	-0.013353324
241	0x3a22004c	0.0006179854
242	0xbb665c45	-0.0035150212
243	0x3c946385	0.01811386
244	0xbcad7cf6	-0.02117775
245	0xbcf5d29f	-0.030007659
246	0x3caec267	0.021332933
247	0x3c158540	0.009126008
248	0xbb74be21	-0.003734477
249	0xbc570f84	-0.013126258
250	0x3c95c3dc	0.01828187
251	0x3c9ddb85	0.019269714
252	0xbbd4d65e	-0.006495281
253	0xbc5f997c	-0.013647433
254	0xbc88b4e5	-0.01668782
255	0x3c8622d0	0.016374022

layer2.bias f4 [16]
0	0x3ec806df	0.39067742
1	0x3bc83a7b	0.006110487
2	0xbbd7f0f5	-0.0065900036
3	0xbd3147d0	-0.043281376
4	0xbb050c07	-0.0020301358
5	0xbb32a7dd	-0.00272607
6	0xbc3266f5	-0.010888805
7	0x3dcda7e7	0.100417905
8	0xbb9d44e6	-0.004799473
9	0x3e8b2ddd	0.27183428
10	0xbc925501	-0.017862799
11	0x3d5703b4	0.052493766
12	0x3ec32d51	0.3812051
13	0xbcc265ca	-0.023730177
14	0x3d1451d9	0.03621087
15	0xbcf1e3d4	-0.029527582

layer8.weight f4 [5, 16]
0	0x3ec09010	0.3760991
1	0xbc9292c0	-0.017892241
2	0xb9e9fd6c	-0.00044630037
3	0x3c6b5261	0.014362902
4	0x3d509bcd	0.050929833
5	0x3ed2fb68	0.41207433
6	0xbdb9d76a	-0.0907429
7	0x3f535458	0.82550573
8	0x3c8ffead	0.017577494
9	0x3e324901	0.17410661
10	0x3d1ab7bb	0.037772875
11	0x3ea7e9d9	0.327956
12	0x3e87c12c	0.26514566
13	0xbc3195d8	-0.010838948
14	0xbda08ece	-0.07839738
15	0x3c8fe8c4	0.017567046
16	0x3ebbb16e	0.36658806
17	0x3c0dabf5	0.008646955
18	0xbc76266c	-0.015023809
19	0x3c760e20	0.015018016
20	0x3d05392e	0.032525234
21	0x3ec42f52	0.38317353
22	0xbf186351	-0.59526545
23	0x3f54e0ac	0.8315532
24	0xbc3ab682	-0.011396052
25	0x3e5a4899	0.21316756
26	0xbab8f09b	-0.0014109792
27	0x3ead7949	0.33881596
28	0x3e810fda	0.25207406
29	0xbc119c28	-0.008887328
30	0x3df9800a	0.12182625
31	0xbcbc9e72	-0.023024771
32	0x3eb74ee2	0.3580237
33	0xbb5d4cf8	-0.00337678
34	0x3c1b587d	0.0094815465
35	0x3cc18d9e	0.023627099
36	0x3de3c19a	0.11120911
37	0x3ecc764c	0.39934003
38	0xbfa63cff	-1.2987365
39	0x3f58bdc5	0.84664565
40	0xbcb7bd75	-0.022429207
41	0x3e5a815e	0.21338412
42	0x3c108a01	0.008821965
43	0x3ea3f60d	0.3202366
44	0x3e926026	0.2858898
45	0x3c7ada3b	0.015310819
46	0x3ea8e789	0.32989147
47	0x3aa888b6	0.0012858126
48	0x3eb87c8f	0.3603253
49	0xbc9a0bd1	-0.018804463
50	0xbc8b6887	-0.017017616
51	0xbc7f097c	-0.015566226
52	0xbd1e9ac5	-0.03872182
53	0x3ebae307	0.36501333
54	0xbc86a47d	-0.016435856
55	0x3f4c1647	0.7972149
56	0xbca60ed8	-0.02027075
57	0x3e530a55	0.2060941
58	0xbb4a543c	-0.0030872962
59	0x3eb71d25	0.35764423
60	0x3e9177c5	0.2841169
61	0xbc2e7659	-0.0106483335
62	0x3cb1cc73	0.021703934
63	0xbb3e6214	-0.0029050158
64	0x3ec735a0	0.389081
65	0x3bf1523c	0.0073645394
66	0x3c8d426b	0.017243585
67	0xb99b8ba2	-0.00029667938
68	0x3d920a2a	0.07130845
69	0x3ecc0e29	0.39854553
70	0xbe5f213c	-0.21790022
71	0x3f4ad235	0.79227
72	0x3c28daa3	0.010306033
73	0x3e46eca9	0.19426216
74	0xbc29676b	-0.010339598
75	0x3ea5cc14	0.32382262
76	0x3e88107f	0.26575086
77	0x3bc605a6	0.006043154
78	0x3e0eb96d	0.13937922
79	0xbae8d668	-0.0017764093

layer8.bias f4 [5]
0	0x3e0551ef	0.13019536
1	0x3deae547	0.114695124
2	0x3dbeddf9	0.09319682
3	0x3dc01807	0.09379583
4	0x3dc5c050	0.09655821
