models/model_test.pth (torch, 30385 bytes, 4 tensors)

layer1.weight f4 [256, 22]
-0.09136403 -0.04756451 -2.4421015 -0.24958941 0.19706875 0.38223547 0.49779892 0.076063894
0.16463597 -0.58618265 -0.28539208 -0.10752865 -0.89965475 0.03334323 -0.3086709 -0.03607143
-1.1834112 0.2837847 -0.73195976 -0.021462113 -0.48725748 -0.065319404 -0.17262939 0.014660547
-0.50310874 -0.81654674 0.1290559 0.07146145 0.42561045 0.18502921 0.1453998 0.015494518
0.11188262 -0.10454074 0.41531065 0.00089565036 0.55716807 0.10756932 0.39484325 0.06435695
0.40613693 0.0059408895 0.5481486 0.052041918 -0.39647964 0.2621853 -0.3708912 -0.41236547
-0.14534688 0.030676382 0.18117979 -0.31285304 -0.41911268 0.07289359 -0.07177445 -0.22008485
0.49086896 0.17954715 0.4088782 0.080707535 0.3621782 -0.01638431 0.34633556 0.09931734
0.41455403 0.10462679 -0.42095762 0.035078086 0.21686578 0.2300402 -0.22348492 -0.2514947
-0.356301 -0.06076442 -0.03597174 -0.0649288 0.20223011 0.3037411 0.805947 0.081177816
0.66012764 0.1900309 0.7870028 -0.03294022 0.78503394 0.09710257 0.38930848 -0.0068999967
0.16417864 0.5183345 0.16079463 0.14239366 0.22082743 -0.0024371012 0.01751322 0.21909189
-0.19140986 0.102689154 0.21502833 -0.11972037 0.032909412 0.4525204 -0.022734981 0.37731752
0.21717168 0.2512353 0.18111826 0.47071624 0.22602797 0.43809208 0.36316076 -0.039159406
0.5408013 -0.29351896 0.17336746 0.26146924 -1.5911518 0.30911908 0.38648006 0.17089257
-0.017754493 -0.11065318 0.24225546 0.12907387 0.19599395 0.21766745 0.36039713 0.043072443
0.34438735 -0.04511616 0.18218973 0.14320996 -0.28618935 -0.014466697 -1.2529385 -1.0064278
0.27153343 0.27893063 0.5075865 0.23942843 0.07251152 0.056390043 0.13855347 -0.18828693
0.051323343 0.11371521 0.45911992 0.11754179 0.18976732 0.07668759 0.2237904 0.09210987
0.41236827 -0.04834842 0.24114713 0.41566846 0.2854232 0.19749252 0.18749268 -0.046792958
0.071380496 0.22151545 -0.19134773 0.048184164 0.29153517 -0.15499768 -0.044390894 0.44989422
-0.083358645 0.47089055 0.13664828 0.23413025 0.0077582207 0.43313462 0.21525826 0.53747094
0.09019988 0.04535928 -0.479977 -0.31142226 0.01778803 0.23009059 0.40292922 -0.054656364
-0.21851432 -0.70688254 -0.17217639 -0.07199095 0.1034139 0.10270585 0.1762641 0.2084972
0.021932801 0.34816426 0.15124528 -0.08014094 -0.017444367 -0.05406925 -0.31884134 -0.0955512
0.26610997 -1.4000227 0.120848894 -0.030022193 -0.12212208 0.23258804 -0.115456924 -0.20080175
0.12509458 -0.06704295 0.15630278 0.014513918 0.5372005 0.05041794 0.39828748 0.1219925
0.3057603 -0.056013748 0.3992269 -0.013249789 -0.47864288 0.28597695 -0.16795737 -0.36142215
-0.14078526 -0.055611942 0.15040696 -0.24533756 -0.47378612 -0.018188039 -0.068533085 -0.08148595
0.49725544 0.20643471 0.23757121 0.18972895 0.24447374 0.14226952 0.18229808 0.20925765
0.29411265 0.32413307 0.07920467 0.42206728 0.07049223 0.121561654 0.26806206 -0.1311375
0.022189837 0.15818 -0.123365074 0.14331049 0.29401428 -0.14967461 -0.070314385 0.35882306
00000000: 111d bbbd 01d3 42bd 644b 1cc0 5e94 7fbe
00000010: 64cc 493e 5eb4 c33e 80df fe3e 63c7 9b3d
00000020: 5596 283e 1110 16bf e91e 92be fb37 dcbd
00000030: c64f 66bf e992 083d 1d0a 9ebe a3bf 13bd
00000040: 057a 97bf 3a4c 913e b761 3bbf 50d1 afbc
00000050: d079 f9be 2ec6 85bd c2c5 30be ca32 703c
00000060: bccb 00bf 3509 51bf 3b27 043e 615a 923d
00000070: 9de9 d93e 4c78 3d3e afe3 143e b8dc 7d3c
00000080: b722 e53d 7519 d6bd 99a3 d43e 14ca 6a3a
00000090: 91a2 0e3f 4e4d dc3d e528 ca3e 94cd 833d
000000a0: 2ef1 cf3e cbab c23b 7753 0c3f e829 553d
000000b0: 61ff cabe 273d 863e 74e5 bdbe 9121 d3be
000000c0: d0d5 14be 094d fb3c 3287 393e 462e a0be
000000d0: f095 d6be 3c49 953d 7cfe 92bd ec5d 61be
000000e0: 2d53 fb3e 35db 373e 7c58 d13e fe49 a53d
000000f0: 6c6f b93e 6338 86bc e552 b13e e466 cb3d
00000100: 6d40 d43e 9246 d63d c287 d7be 0aae 0f3d
00000110: 1012 5e3e a88f 6b3e 3bd9 64be eac3 80be
00000120: 166d b6be 1de4 78bd 1a57 13bd 64f9 84bd
00000130: 6915 4f3e f483 9b3e 8b52 4e3f 8e40 a63d
00000140: 20fe 283f 7697 423e 0479 493f 53ec 06bd
00000150: fcf7 483f b6dd c63d 7153 c73e 5e19 e2bb
00000160: 721e 283e 92b1 043f 59a7 243e a5cf 113e
00000170: 9620 623e c6b7 1fbb e277 8f3c a059 603e
00000180: f200 44be b14e d23d 6330 5c3e f42f f5bd
00000190: 05cc 063d c1b0 e73e b63e babc c32f c13e
000001a0: 4162 5e3e eaa1 803e 1177 393e b801 f13e
000001b0: e073 673e 9b4d e03e 35f0 b93e 9d65 20bd
000001c0: f471 0a3f 1e48 96be 3d87 313e 4cdf 853e
000001d0: ddaa cbbf db44 9e3e b7e0 c53e 76fe 2e3e
000001e0: df71 91bc 229e e2bd d111 783e f12b 043e
000001f0: a3b2 483e 37e4 5e3e f985 b83e bb6c 303d
00000200: 8a53 b03e b9cb 38bd f28f 3a3e a2a5 123e
00000210: 6987 92be ba05 6dbc 4a60 a0bf a0d2 80bf
00000220: 6e06 8b3e ffcf 8e3e 30f1 013f ba2c 753e
00000230: eb80 943d 3ff9 663d f6e0 0d3e 4ace 40be
00000240: 6d38 523d 85e3 e83d c411 eb3e c0b9 f03d
00000250: 5d52 423e 620e 9d3d 5029 653e 19a4 bc3d
00000260: ef21 d33e fe08 46bd 46ef 763e 7fd2 d43e
00000270: fd22 923e 7b3b 4a3e 15fe 3f3e f9a9 3fbd
00000280: f02f 923d f2d4 623e a9f0 43be c25c 453d
00000290: 1944 953e b6b7 1ebe 3ad3 35bd 8958 e63e
000002a0: f0b7 aabd 9118 f13e 87ed 0b3e d7bf 6f3e
000002b0: ac38 fe3b d2c3 dd3e a96c 5c3e b297 093f
000002c0: b7ba b83d a7ca 393d 8cbf f5be bd72 9fbe
000002d0: 34b8 913c de9c 6b3e bd4c ce3e 5adf 5fbd
000002e0: 38c2 5fbe 41f6 34bf 024f 30be fe6f 93bd
000002f0: abca d33d 7257 d23d 947e 343e 4a80 553e
00000300: 6bac b33c 9642 b23e 0be0 1a3e ef20 a4bd
00000310: 7de7 8ebc b877 5dbd 2c3f a3be 59b0 c3bd
00000320: 913f 883e f233 b3bf a07f f73d 1af1 f5bc
00000330: 241b fabd 8f2b 6e3e ae74 ecbd f99e 4dbe
00000340: cb18 003e d04d 89bd d60d 203e c9cb 6d3c
00000350: f985 093f 0b83 4e3d 56ec cb3e 34d7 f93d
00000360: 9d8c 9c3e ac6e 65bd 7867 cc3e a515 59bc
00000370: ae10 f5be 926b 923e 04fd 2bbe 530c b9be
00000380: 032a 10be 59c9 63bd 4804 1a3e c539 7bbe
00000390: 1894 f2be 15ff 94bc 135b 8cbd 1be2 a6bd
000003a0: 4498 fe3e 9f63 533e de45 733e 4e48 423e
000003b0: 5357 7a3e 1aaf 113e 59ac 3a3e a347 563e
000003c0: ef95 963e c5f4 a53e 0f36 a23d 3419 d83e
000003d0: 3b5e 903d 51f5 f83d 6e3f 893e e948 06be
000003e0: 76c7 b53c f0f9 213e d4a6 fcbd fcbf 123e
000003f0: 0a89 963e 4d44 19be fd00 90bd a8b7 b73e

layer1.bias f4 [256]
0.091907874 0.093600616 -0.0054837135 -0.07859135 0.56309414 0.17189036 0.11883507 0.51596
-0.07448872 0.092773296 -0.04235939 0.6112603 -0.30193907 0.050268725 0.0055296947 0.036396574
0.5111927 -0.11259789 0.05745208 0.5572472 -0.0674475 -0.014309841 0.63799834 0.6314727
-0.015718548 -0.011326544 -0.12533492 0.5692302 -0.17734578 0.08367817 0.2544122 -0.080033444
0.56088895 -0.047529276 0.65432364 -0.06315754 -0.1950152 -0.05783927 0.31899935 -0.16953811
0.60100645 0.16229418 0.55480224 -0.13224222 -0.1631825 0.020006338 -0.07489483 0.08642637
-0.25354353 0.6383405 0.072762065 -0.0787191 0.11857296 -0.12018667 -0.03918018 0.5449476
0.036857016 0.105416305 0.11942544 0.628293 0.5661308 -0.1765403 0.26512873 0.16242464
-0.20524673 0.026023924 0.093320474 0.69158 -0.13392566 0.5336654 -0.20482473 0.104337715
-0.1561793 0.5214171 0.6523981 -0.25082177 -0.17742439 0.56025034 -0.011510169 0.0029709118
0.061936133 0.08542516 -0.09793778 0.101147905 0.5171024 0.10869074 -0.116229735 -0.03322779
0.017916808 0.4617767 0.5735257 0.58704096 -0.1548119 0.23295751 0.010568052 0.06560526
0.59931785 0.099360526 0.6303765 0.60215706 -0.14192286 -0.1922847 0.7516683 0.71990436
0.066766985 0.11360333 0.14034879 -0.16935763 -0.050164342 0.04690141 -0.16836089 -0.1794303
-0.04192948 0.07752987 -0.05458273 -0.07017646 0.7516619 -0.03275323 0.58112085 -0.008593517
-0.19946817 0.72430384 0.06400722 0.508145 0.2406946 -0.11418978 -0.017122854 0.5869202
-0.21067198 0.0688807 -0.041190743 0.0181996 -0.17113169 -0.20482667 0.28115702 0.027785322
0.49083757 -0.07042615 0.65330786 -0.0025451086 0.56044644 0.051260497 0.16365911 -0.100143
0.5544578 0.028211845 -0.1441578 0.63106275 0.61706364 -0.08713923 0.066659845 -0.11316432
-0.11959245 0.4640348 0.66590244 -0.115931466 -0.023344181 -0.18247418 0.72861093 -0.032192428
-0.17968635 0.050110083 0.0007129704 0.67673105 0.43505895 0.068498224 0.08242041 0.6476297
-0.10423441 -0.18073186 0.6400506 0.5528572 0.13657142 0.67427087 -0.29621646 -0.13325486
-0.16698189 0.35152772 -0.12780114 -0.16914861 0.48175517 0.60507137 -0.18804942 0.512623
0.60849935 -0.019134536 0.050611947 -0.11954954 0.08034662 0.03228817 0.45261163 0.5249541
-0.31119442 -0.05374134 0.27766243 -0.16933273 -0.027272562 0.11481784 0.2154732 0.76220363
-0.1179861 0.020567361 0.51774275 -0.09957523 0.6061662 0.0855379 0.0023895123 -0.0077085965
-0.0078013428 0.6042356 -0.22299294 0.4897728 0.039359014 0.5743474 -0.037673313 0.1884853
0.053696293 -0.036139023 0.05191936 -0.12886846 0.001664375 0.20630625 -0.051727653 0.69863844
0.6042667 -0.13270757 0.014377797 0.6744874 0.11816696 0.3369355 -0.113778375 0.19664621
-0.15804927 0.057934046 0.45395103 0.44362903 -0.0049040224 -0.11570337 0.07328421 -0.15303963
0.009789508 -0.12858279 0.48878658 0.000589188 -0.0541506 0.5750563 -0.18212017 0.18760207
0.23215489 -0.26366803 -0.018680086 0.5825196 -0.12560055 -0.104121305 -0.07683955 -0.15814225
00000000: 323a bc3d aeb1 bf3d b9b0 b3bb 80f4 a0bd
00000010: f026 103f 0704 303e cd5f f33d f415 043f
00000020: 8b8d 98bd edff bd3d 0a81 2dbd 8e7b 1c3f
00000030: c297 9abe 94e6 4d3d 7132 b53b 9314 153d
00000040: 86dd 023f b999 e6bd df52 6b3d c1a7 0e3f
00000050: ea21 8abd d373 6abc dc53 233f 32a8 213f
00000060: 2fc4 80bc f892 39bc cc57 00be 12b9 113f
00000070: 229a 35be 765f ab3d 5142 823e 93e8 a3bd
00000080: 6b96 0f3f 0fae 42bd c181 273f be58 81bd
00000090: 11b2 47be dfe8 6cbd e253 a33e 669b 2dbe
000000a0: 8fdb 193f 7230 263e 8507 0e3f 816a 07be
000000b0: 5019 27be 55e4 a33c 7662 99bd 4f00 b13d
000000c0: 75d0 81be 486a 233f 4704 953d 7b37 a1bd
000000d0: 61d6 f23d 6e24 f6bd 657b 20bd b081 0b3f
000000e0: 62f7 163d 81e4 d73d 5395 f43d cfd7 203f
000000f0: f3ed 103f fbc6 34be f4be 873e a552 263e
00000100: 332c 52be 2030 d53c ce1e bf3d 630b 313f
00000110: cf23 09be 4c9e 083f 93bd 51be 03af d53d
00000120: 77ed 1fbe 977b 053f 9003 273f b66b 80be
00000130: bdae 35be 916c 0f3f 2695 3cbc a1b3 423b
00000140: beb0 7d3d 63f3 ae3d 9a93 c8bd a226 cf3d
00000150: d360 043f 4099 de3d db09 eebd dd19 08bd
00000160: 45c6 923c ff6d ec3e 95d2 123f 5148 163f
00000170: 0387 1ebe 6a8c 6e3e 9f25 2d3c 0d5c 863d
00000180: e56c 193f 887d cb3d 5b60 213f f726 1a3f
00000190: 3a54 11be 48e6 44be 556d 403f a74b 383f
000001a0: 21bd 883d dda8 e83d 98b7 0f3e 166c 2dbe
000001b0: 2079 4dbd b11b 403d cc66 2cbe 94bc 37be
000001c0: 3fbe 2bbd fbc7 9e3d 2492 5fbd adb8 8fbd
000001d0: ea6c 403f 4028 06bd 56c4 143f d3cb 0cbc
000001e0: 6241 4cbe fa6b 393f 3816 833d ca15 023f
000001f0: a578 763e 55dc e9bd 3a45 8cbc 6740 163f
00000200: 65ba 57be 5311 8d3d a0b7 28bd 5417 953c
00000210: 253d 2fbe 15be 51be d0f3 8f3e 0b9e e33c
00000220: 104f fb3e 963b 90bd 2f3f 273f d6cb 26bb
00000230: 6b79 0f3f 87f6 513d 4196 273e c617 cdbd
00000240: f2f0 0d3f 871c e73c 1a9e 13be 548d 213f
00000250: e2f7 1d3f 0d76 b2bd f584 883d b2c2 e7bd
00000260: e3ec f4bd f895 ed3e 9578 2a3f 7a6d edbd
00000270: 4c3c bfbc 83da 3abe 3f86 3a3f 35dc 03bd
00000280: b3ff 37be 3b40 4d3d a2e6 3a3a 3f3e 2d3f
00000290: 0cc0 de3e cc48 8c3d 08cc a83d 0fcb 253f
000002a0: da78 d5bd c611 39be 5bda 233f 0d88 0d3f
000002b0: 61d9 0b3e 049d 2c3f afa9 97be f673 08be
000002c0: 4dfd 2abe 71fb b33e 4dde 02be 4b35 2dbe
000002d0: 9da8 f63e f5e5 1a3f 0790 40be 433b 033f
000002e0: 9dc6 1b3f 08c0 9cbc 794e 4f3d 64d6 f4bd
000002f0: c58c a43d 9a40 043d b6bc e73e 6463 063f
00000300: e054 9fbe e11f 5cbd c529 8e3e 8f65 2dbe
00000310: b56a dfbc 9e25 eb3d 02a5 5c3e c71f 433f
00000320: b2a2 f1bd e27c a83c ca8a 043f 19ee cbbd
00000330: b52d 1b3f 7f2e af3d 5d99 1c3b 6598 fcbb
00000340: 68a2 ffbb 2faf 1a3f 4358 64be 80c3 fa3e
00000350: eb36 213d 6e08 133f 554f 1abd 4a02 413e
00000360: a5f0 5b3d 8306 14bd 65a9 543d 18f6 03be
00000370: 2827 da3a f241 533e 60e0 53bd f8d9 323f
00000380: 39b1 1a3f 7ee4 07be da90 6b3c 35ab 2c3f
00000390: 8501 f23d cf82 ac3e a304 e9bd a05d 493e
000003a0: abd7 21be 404c 6d3d 456c e83e 5823 e33e
000003b0: ecb1 a0bb e3f5 ecbd 0816 963d 6cb6 1cbe
000003c0: 2c64 203c 35ab 03be 3c42 fa3e bd73 1a3a
000003d0: 05cd 5dbd e436 133f b67d 3abe c21a 403e
000003e0: 03ba 6d3e 7fff 86be fb06 99bc 0120 153f
000003f0: 6e9d 00be 8d3d d5bd 0e5e 9dbd 0bf0 21be

layer8.weight f4 [5, 256]
-1.715554 -0.74288434 0.19367787 -1.0004344 0.29041907 -0.74348366 -0.8801504 0.20416705
-0.5199015 -0.93981624 0.40073013 0.2573994 -0.68904537 -0.48640203 -0.4462947 -0.90226376
0.2940496 -0.83905345 -0.6782883 0.25812653 -0.5679012 -0.6801281 0.20730895 0.23439069
-0.40341833 -0.14438413 -0.70359385 0.27417758 -0.6199824 -1.2642249 1.0747819 -1.6605355
0.251984 0.051668957 0.22314186 -1.1080418 0.06290911 0.20764606 -0.06411892 -0.15768899
0.47141713 0.84426636 0.26884508 -0.7265541 -1.7338494 1.3156172 -0.0023193217 -1.0324516
-0.5248935 0.7321247 0.51632476 -0.8964052 1.5435203 -0.77595985 -0.7118529 0.30434048
-0.387707 -2.2139332 -1.3723994 0.21056224 0.26798132 0.29877073 0.731733 -1.7817852
-0.56756896 0.018856786 -1.7166928 0.33368772 -0.48378092 0.27372882 -0.22522761 0.8162813
-2.7323713 0.2797391 0.31924507 -0.83690464 -0.7014168 0.22060041 -1.5549548 -0.8439093
0.55338365 0.30665526 -0.56427956 -0.3159837 0.2999873 -0.7799426 -0.3566042 -0.517038
-1.7781794 0.26823637 0.17518829 0.23442437 -0.87769306 -0.49521053 -0.65382564 -1.3410585
0.28168252 -0.370233 0.26077175 0.20006903 -0.34379685 -0.4102655 1.4811924 0.28344318
-1.3842922 -0.7089956 -0.8491197 -0.72040796 0.66108245 0.02231104 -0.26483765 -0.833174
-1.9055583 1.4678175 -1.2509155 -0.83151203 0.2667599 -0.70338655 1.1609346 -0.08179462
-0.37469232 0.20018518 -0.45761353 0.27471378 0.2561306 0.09780724 -1.0844898 0.24193649
-0.81585145 -1.7010598 0.6097749 -0.17790793 -1.0169582 -1.4019431 -1.2570761 -0.9998566
0.42658266 -0.8716337 0.28747997 -1.2367207 0.30010262 -0.08196649 0.1703848 -1.0646726
0.2903451 0.17758285 -0.44833413 0.25872275 0.38561913 0.26088506 -0.38410142 -0.40866798
0.29230773 1.210336 0.22314012 -1.2228538 -0.62557524 -0.5539732 0.28274167 -0.54467255
-0.6047363 -1.8017704 -2.6974218 0.23091556 1.1878818 0.19674231 -1.0397644 0.26649758
-1.2656646 -0.97034734 0.19271359 0.23267917 0.56868714 0.25340953 -2.026232 -1.6556011
1.2126099 0.83876127 -0.6431762 -0.7768945 0.96710753 0.82966894 -1.4581547 0.33292282
0.2659574 -0.19599698 -0.5889804 -0.82423043 -2.5227933 0.19515345 0.41636002 0.27804062
-0.24049029 -0.42191687 0.42432082 -0.24266605 -1.442156 -0.47767597 0.8735238 0.2854627
-0.75844014 -1.2388401 0.20823422 -0.2832249 0.254876 -1.7459829 -1.2752044 -0.4999312
-2.6218202 0.3133718 -1.1836306 1.5244204 -2.4223819 2.0629754 -0.83816075 -0.90204024
-0.8128185 0.08521614 -1.7192807 -1.0567713 -0.70153344 -1.2146449 -0.13316247 0.24923417
0.24860653 -0.95039856 -0.856915 0.29191908 -3.6218781 -0.30378455 -1.681534 0.80467916
-0.74552476 -0.4484974 0.4829448 0.81473833 0.05086872 -0.064498454 -1.298101 -0.2675964
-0.6068291 -0.5807885 0.28982 -1.1100267 -0.04136046 0.26711774 -0.20785536 0.8355488
1.1025549 -0.18247233 -1.8063349 0.44036523 -1.0859226 0.13256766 -0.36742407 -0.2542578
00000000: 4697 dbbf ab2d 3ebf 7e53 463e 3c0e 80bf
00000010: cfb1 943e f254 3ebf 8951 61bf 2b11 513e
00000020: 4418 05bf cc97 70bf 802c cd3e dbc9 833e
00000030: 4765 30bf b009 f9be bd80 e4be c2fa 66bf
00000040: ab8d 963e 35cc 56bf 4da4 2dbf 2929 843e
00000050: f961 11bf e01c 2ebf cc48 543e 1d04 703e
00000060: d98c cebe 6fd9 13be ba1e 34bf 0161 8c3e
00000070: 2bb7 1ebf 1fd2 a1bf 7492 893f 6d8c d4bf
00000080: 0c04 813e d4a2 533d 4d7f 643e 50d4 8dbf
00000090: 7ed6 803d 2ba1 543e c850 83bd 3979 21be
000000a0: 965d f13e d721 583f 10a6 893e 73ff 39bf
000000b0: c7ee ddbf 2566 a83f c3ff 17bb 6027 84bf
000000c0: 6c5f 06bf 866c 3b3f dc2d 043f d07a 65bf
000000d0: 1392 c53f 4ea5 46bf fe3b 36bf 84d2 9b3e
000000e0: 8881 c6be 15b1 0dc0 c9aa afbf a19d 573e
000000f0: d934 893e 7af8 983e db52 3b3f 8a11 e4bf
00000100: 334c 11bf 8c79 9a3c 97bc dbbf 1ed9 aa3e
00000110: 22b2 f7be 2f26 8c3e 11a2 66be d0f7 503f
00000120: 2cdf 2ec0 f739 8f3e 1774 a33e 623f 56bf
00000130: 0d90 33bf 13e5 613e c208 c7bf 710a 58bf
00000140: 8daa 0d3f eb01 9d3e a074 10bf 9ec8 a1be
00000150: ef97 993e 51aa 47bf d394 b6be 9a5c 04bf
00000160: 629b e3bf 4756 893e 8f64 333e f10c 703e
00000170: 7eb0 60bf 3c8c fdbe 1e61 27bf cea7 abbf
00000180: b138 903e 2e8f bdbe e083 853e e5de 4c3e
00000190: 2406 b0be 520e d2be b697 bd3f 771f 913e
000001a0: 7d30 b1bf bc80 35bf e95f 59bf a86c 38bf
000001b0: b33c 293f a4c5 b63c cd98 87be e44a 55bf
000001c0: 56e9 f3bf 72e1 bb3f 001e a0bf f9dd 54bf
000001d0: c194 883e 2411 34bf 8199 943f f083 a7bd
000001e0: acd7 bfbe 58fd 4c3e 524c eabe 49a7 8c3e
000001f0: 8d23 833e 2a4f c83d 90d0 8abf 33be 773e
00000200: a4db 50bf 54bc d9bf 351a 1c3f 7f2d 36be
00000210: b02b 82bf df72 b3bf dfe7 a0bf 9af6 7fbf
00000220: 0b69 da3e 6323 5fbf 9330 933e dd4c 9ebf
00000230: 0da7 993e 0cde a7bd 5a79 2e3e 3147 88bf
00000240: 1da8 943e 47d8 353e 0d8c e5be 4f77 843e
00000250: df6f c53e ba92 853e f1a8 c4be ee3c d1be
00000260: 5ca9 953e 4aec 9a3f d87e 643e 7986 9cbf
00000270: b325 20bf 30d1 0dbf 84c3 903e a96f 0bbf
00000280: 00d0 1abf 6aa0 e6bf 8fa2 2cc0 2175 6c3e
00000290: 830c 983f d176 493e 0017 85bf 5f72 883e
000002a0: 4c01 a2bf af68 78bf b656 453e 7343 6e3e
000002b0: 7b95 113f e5be 813e c9ad 01c0 bdea d3bf
000002c0: cd36 9b3f 0fb9 563f 32a7 24bf 8fe2 46bf
000002d0: 5c94 773f 2f65 543f d0a4 babf dc74 aa3e
000002e0: 912b 883e 6fb3 48be 6bc7 16bf c400 53bf
000002f0: 7275 21c0 4ed6 473e 242d d53e 575b 8e3e
00000300: 1643 76be 7d05 d8be 9440 d93e 737d 78be
00000310: 9198 b8bf f291 f4be 419f 5f3f 2b28 923e
00000320: 2229 42bf 5092 9ebf 5a3b 553e db02 91be
00000330: 1b7f 823e 5e7c dfbf e639 a3bf fbf6 ffbe
00000340: e7cb 27c0 4572 a03e 3581 97bf 3520 c33f
00000350: 4e08 1bc0 ca07 0440 b491 56bf 1cec 66bf
00000360: e014 50bf cd85 ae3d 6411 dcbf 4844 87bf
00000370: b297 33bf 7c79 9bbf be5b 08be 3e37 7f3e
00000380: b692 7e3e 524d 73bf c85e 5bbf 6b76 953e
00000390: dacc 67c0 a689 9bbe 823c d7bf 74ff 4d3f
000003a0: b6da 3ebf 74a1 e5be 8a44 f73e b192 503f
000003b0: b85b 503d c417 84bd 2c28 a6bf 6502 89be
000003c0: 2759 1bbf 8eae 14bf 4963 943e 5b15 8ebf
000003d0: 9669 29bd a8c3 883e 09d8 54be 87e6 553f
000003e0: 8520 8d3f 07da 3abe fb35 e7bf 8d77 e13e
000003f0: 83ff 8abf d1bf 073e 021f bcbe 142e 82be

layer8.bias f4 [5]
0.28309572 0.3084025 0.2743147 0.1558572 0.17569354
00000000: ecf1 903e efe6 9d3e fa72 8c3e 0899 1f3e
00000010: 02e9 333e
