models/model_test.pth (torch, 90475 bytes, 12 tensors)

layer1.weight f4 [32, 22]
0	0x3eb62094	0.3557173
1	0xbd0544e5	-0.032536406
2	0x3d0919bb	0.033471804
3	0xbae87e36	-0.0017737809
4	0x3c8e0a41	0.017338874
5	0xbc29efcb	-0.0103721125
6	0x3bbfa758	0.0058488064
7	0x3cadfca6	0.021238636
8	0xbc944b14	-0.018102206
9	0x3b2c885f	0.00263264
10	0xbc03836d	-0.00802694
11	0xbc9a53e6	-0.018838834
12	0xbc1049c7	-0.008806652
13	0x3b7c13e0	0.0038463995
14	0x3a277bf4	0.0006389015
15	0x3ccbce4b	0.024878642
16	0xbb36beda	-0.0027884752
17	0x3ca0b78e	0.019618776
18	0x3b4480b0	0.002998393
19	0x3cb497b0	0.022044986
20	0x3ce958ea	0.02848478
21	0x3cdb9767	0.026805593
22	0xbdbb9f26	-0.091612145
23	0x3d49f6bb	0.049307566
24	0xbdc18806	-0.094497725
25	0xbdec1a58	-0.11528462
26	0xbb91a161	-0.0044442867
27	0xbd20f828	-0.03929916
28	0xbd14c67b	-0.0363221
29	0x3d9fa90f	0.07795917
30	0xbd47a557	-0.048741665
31	0x3b82867f	0.0039833183
32	0x3c34ab37	0.011027149
33	0xbd2fc626	-0.04291358
34	0xbca86f78	-0.020560965
35	0x3c0605de	0.00818011
36	0x3dc3c4f0	0.09559047
37	0x3c83caa1	0.016087832
38	0x3e43acd6	0.191089
39	0x3d3e3ee7	0.046446707
40	0xbd553c79	-0.052059624
41	0x3cc1ed75	0.023672799
42	0xbd3084ca	-0.043095388
43	0x3c5b6f29	0.013393202
44	0xbea4ba4e	-0.3217339
45	0x3d87c517	0.06629389
46	0xbdd0cbae	-0.10195099
47	0x3bf13c82	0.0073619494
48	0x3a3d3cda	0.00072188454
49	0x3d440d6f	0.047864374
50	0xbb15b990	-0.00228462
51	0x3c4de9bb	0.012567933
52	0xbbf33340	-0.007421881
53	0xbad53cf9	-0.0016268782
54	0x3cb5aa3b	0.022175899
55	0xbc5e3aa5	-0.013563787
56	0x3d22aae4	0.039713755
57	0xbc4d0644	-0.012513701
58	0xbcbdc6f8	-0.023166165
59	0x3c6475e4	0.013944123
60	0x3cf95727	0.030437065
61	0x3ce90ac8	0.028447524
62	0x3b90d41c	0.0044198167
63	0x3c1d963a	0.009618336
64	0xbc22d914	-0.009939451
65	0x3c852bd3	0.016256249
66	0xbe936f93	-0.28796062
67	0x3dd5b259	0.10434408
68	0x3d9ea1d4	0.0774571
69	0x39265abf	0.00015864799
70	0xbaa5d750	-0.0012652669
71	0x3c86fcf4	0.01647804
72	0xbc276a32	-0.01021819
73	0x3c85ccd4	0.016333021
74	0x3b4f4992	0.0031629545
75	0x3c607053	0.013698655
76	0x3cfc7d53	0.030821478
77	0xbcd46939	-0.02592908
78	0xbd50e1ce	-0.050996594
79	0x3c855255	0.01627461
80	0xbdad1757	-0.08451717
81	0x3cc2829e	0.023743924
82	0x3b3c95cd	0.0028775812
83	0x3cc8c173	0.024506306
84	0xbdd20ec8	-0.102567255
85	0x3cd8e12d	0.02647456
86	0xbd934b3d	-0.07192085
87	0x3ca68e62	0.020331565
88	0x3cd8ea75	0.026478985
89	0xbd9b7f1a	-0.07592602
90	0x3d8d367f	0.0689516
91	0x3d619304	0.055071846
92	0xbca1a688	-0.019732729
93	0xbd153168	-0.03642407
94	0x3d6e124c	0.058122918
95	0xbd93d6ca	-0.07218702
96	0xbbd80d91	-0.006593414
97	0xbd856cf6	-0.06514923
98	0xbd783970	-0.06060165
99	0xbd81b780	-0.06333828
100	0xbb7129c6	-0.003679858
101	0xbcf88bc3	-0.030340081
102	0x3d02c5d4	0.031926945
103	0xbcd65ca4	-0.026167221
104	0x3dcc663a	0.09980436
105	0xbccc663d	-0.024951095
106	0xbe1dcc22	-0.15409902
107	0x3c2662c9	0.010155388
108	0xbcd61440	-0.026132703
109	0xbbe98d94	-0.007127473
110	0xbea14c4f	-0.3150353
111	0x3dc3f8da	0.09568949
112	0xbd45d564	-0.04829921
113	0x3b86c50f	0.0041128467
114	0x3ae9d714	0.0017840588
115	0x3aa0490e	0.0012228803
116	0x3c059fda	0.008155787
117	0x3bc32a4c	0.00595597
118	0x3ae4ece6	0.0017465621
119	0xbba5ced6	-0.005060057
120	0x3c8672d6	0.01641218
121	0xbc2bd036	-0.010486653
122	0x3b106114	0.002203052
123	0x3c9405fa	0.018069256
124	0xbd09f5cd	-0.03368168
125	0xba68f6c6	-0.000888687
126	0xba2a2857	-0.00064909965
127	0x3ce74884	0.02823282
128	0xbcc623e8	-0.024187043
129	0x3bdd5893	0.0067549436
130	0xbc944bc7	-0.01810254
131	0x3cba262f	0.022723285
132	0xbe3c39ad	-0.18381377
133	0x3d814293	0.06311526
134	0xbe91aeb9	-0.28453615
135	0x3af0ad74	0.001836224
136	0xbceb1b90	-0.028699666
137	0xbad14bff	-0.0015968083
138	0x3c1101db	0.00885054
139	0x3c8cc93e	0.017185804
140	0x3d91a12d	0.0711082
141	0x3bee4168	0.0072709806
142	0x3bc7dd22	0.006099359
143	0xbca590c7	-0.020210637
144	0xbd1261b9	-0.035737727
145	0x3c170012	0.009216325
146	0xbb635af0	-0.0034691654
147	0x3b27c36c	0.0025598658
148	0xbe5d2663	-0.21596675
149	0xbb06378b	-0.0020479884
150	0xbd675c05	-0.05648424
151	0xbbf03390	-0.0073303655
152	0x3dd4e0d5	0.10394446
153	0x3c9b87b0	0.0189856
154	0x3de7dfaf	0.11321961
155	0xbdaca3e1	-0.08429695
156	0xbc9a8a6b	-0.018864831
157	0xbda39fce	-0.07989465
158	0xb99cafcd	-0.0002988562
159	0xbda01ee5	-0.07818393
160	0xbd13ca34	-0.036081508
161	0xbd0199d5	-0.031640846
162	0xbd67c7f5	-0.05658718
163	0xbe1baa22	-0.1520162
164	0x3ddc5fc7	0.107604556
165	0x3db14a7c	0.08656785
166	0x3ead48bb	0.3384455
167	0xbd642031	-0.055694763
168	0x3e700b9c	0.23441929
169	0xbd77c9cf	-0.060495194
170	0x3e966c18	0.29379344
171	0xbd354d8a	-0.0442634
172	0x3ea97437	0.33096477
173	0xbd709e7a	-0.058744885
174	0x3ea57255	0.3231379
175	0xbd65851c	-0.056035146
176	0xbe2997d7	-0.16561829
177	0x3c6bc360	0.014389843
178	0xbdb63c17	-0.0889818
179	0xbe8cd420	-0.2750559
180	0xbc31e993	-0.010858911
181	0x3baf6f30	0.0053538308
182	0x3c59cb7b	0.013293142
183	0x3cb74dac	0.022375904
184	0x3c7b6b37	0.015345386
185	0x3d58d1cd	0.052934457
186	0x3d3cd5ea	0.04610244
187	0x3d138522	0.036015637
188	0x3d2aed8e	0.041730456
189	0x3c7ce258	0.015434824
190	0x3dba7c2b	0.091057144
191	0x3bf902ab	0.007599195
192	0x3e3bff0c	0.18359011
193	0x3c9cc7a7	0.01913817
194	0xbd43bc68	-0.0477871
195	0xbb3a1335	-0.0028392796
196	0xbd26eb9a	-0.04075203
197	0x3c8e3d7c	0.017363302
198	0xbe131ac0	-0.14365673
199	0x3c58e17d	0.013237354
200	0xbd4dd6b0	-0.05025357
201	0xbd089a26	-0.033350132
202	0xbc404c4c	-0.011736941
203	0xbaade598	-0.0013267277
204	0xbe0c0985	-0.13675506
205	0x3d15990b	0.036522906
206	0x3b8318bf	0.0040007527
207	0x3cec8d8c	0.028876089
208	0x3c91af75	0.01778386
209	0x3ad0dea4	0.0015935493
210	0x3c77568f	0.015096321
211	0xbc1ddb36	-0.0096347835
212	0x3e0775ba	0.13228503
213	0xbb9cc345	-0.00478402
214	0x3dff72ff	0.12473106
215	0xbb387a95	-0.0028149236
216	0xbd8010c0	-0.06253195
217	0xbc77b6e8	-0.015119292
218	0x3cbf7b81	0.023374321
219	0xbc131565	-0.008977269
220	0xbe9f10c8	-0.3106749
221	0x3dcc4e0f	0.09975826
222	0xbd947917	-0.072496586
223	0xba82bda7	-0.0009974734
224	0xbccc1733	-0.024913406
225	0x3c8ab856	0.016933601
226	0x3b4767b3	0.00304268
227	0x3b094816	0.0020947508
228	0xbb4da213	-0.0031377121
229	0xbb7e36fb	-0.0038790095
230	0x3c2fb644	0.010724608
231	0x3bb98502	0.0056616077
232	0x3c573657	0.013135514
233	0x3c97d301	0.018533232
234	0xbc84f2c8	-0.016229048
235	0xbbbe8362	-0.005814002
236	0x3c452ccd	0.012034607
237	0x3cd70c26	0.02625091
238	0xbc9d02d9	-0.019166397
239	0x3c95e3a4	0.018297024
240	0xbd00bb32	-0.031428523
241	0x3cf8fc0f	0.030393628
242	0x3eb6983a	0.35663015
243	0xbd1b853a	-0.03796885
244	0xbc49f980	-0.012327552
245	0x3b3371c0	0.0027381033
246	0x3cdfcfe2	0.027320806
247	0xbcda5c51	-0.026655348
248	0xb9ddd101	-0.00042308125
249	0x3c390fe6	0.011295294
250	0xbc1b3013	-0.009471911
251	0x3b906bce	0.0044073826
252	0x3b24db2a	0.0025155046
253	0xbc900065	-0.017578313
254	0xbdf61080	-0.12014866
255	0xbbc295de	-0.0059382757

layer1.bias f4 [32]
0	0xbd555c95	-0.052090246
1	0x3d35041e	0.04419338
2	0x3d9d4d2a	0.076807335
3	0x3de99510	0.114053845
4	0xbc49dee1	-0.012321205
5	0x3dc69cf7	0.096979074
6	0x3d7f4cac	0.06232898
7	0xbd4e4f1b	-0.05036841
8	0x3c82c465	0.015962789
9	0xba6cc982	-0.00090327126
10	0x3dccdb19	0.10002727
11	0xbd3df363	-0.04637469
12	0x3d323d15	0.043515284
13	0x3d1e70cd	0.038681794
14	0x3d7cd297	0.06172427
15	0x3dcca0ed	0.09991632
16	0xbd3167bd	-0.043311823
17	0x3d48c85d	0.049019206
18	0xbd5c6e2a	-0.053815998
19	0xbbf8a0a0	-0.0075875074
20	0xbd895f30	-0.06707609
21	0xbd81afa1	-0.06332327
22	0x3dbce927	0.09224158
23	0xb90720be	-0.000128868
24	0x3dcc8da6	0.09987955
25	0xbc3cee1e	-0.011531381
26	0xbd965518	-0.07340449
27	0xbc401e25	-0.011725937
28	0x3d97243e	0.073799595
29	0x3d8304d8	0.06397408
30	0xbcc94d12	-0.024572883
31	0x3d4e0521	0.05029786

layer2.weight f4 [64, 32]
0	0xbe67cf06	-0.22637567
1	0xbc8c3310	-0.017114192
2	0x3d3d7baa	0.046260513
3	0x3c092320	0.008370191
4	0x3c1f4f30	0.00972347
5	0x3d402e9d	0.046919454
6	0x3ce42696	0.02785043
7	0xbba30334	-0.004974747
8	0xbc21aa03	-0.009867194
9	0x3d3a0ab7	0.045420375
10	0x3dd81092	0.105500355
11	0xbe2f261b	-0.1710438
12	0xb9038454	-0.0001254243
13	0xbdbd05bf	-0.092296116
14	0xbc4e6177	-0.01259648
15	0x3ca4f04d	0.020134116
16	0xbdbb883f	-0.09156846
17	0x3d466ef8	0.04844567
18	0xbe0b54e3	-0.136066
19	0x3b11f383	0.0022270388
20	0xbdc5e097	-0.09661978
21	0xbc9e7711	-0.019343885
22	0x3d435d31	0.047696296
23	0xbabd43af	-0.0014439727
24	0x3d9d0da9	0.07668621
25	0xbc0069b5	-0.0078377025
26	0xbc2445d8	-0.010026418
27	0x3c764a67	0.015032387
28	0x3dc8c2af	0.09802758
29	0x3d6134b5	0.054981906
30	0x3ccc3b8e	0.024930742
31	0x3d91ee01	0.07125474
32	0xbcbeb32d	-0.023278797
33	0xbc9e6e89	-0.019339817
34	0xbc2321c1	-0.009956778
35	0xbc87fb21	-0.01659924
36	0xbc780611	-0.015138165
37	0xbbc01c35	-0.0058627375
38	0xba6b6c71	-0.00089806976
39	0xbbe994d4	-0.0071283374
40	0x3c11a320	0.00888899
41	0xbbbe750a	-0.005812292
42	0x3bcc61ea	0.006237258
43	0xbcc09fff	-0.023513792
44	0xbca803f8	-0.020509705
45	0xbba76ab3	-0.005109155
46	0xba0a04ca	-0.0005264996
47	0xbc481ee0	-0.012214392
48	0xbcce0311	-0.025147947
49	0xbc6021b1	-0.013679908
50	0xbc9b2276	-0.01893733
51	0xbc1c800a	-0.009552011
52	0xbc7f7134	-0.015590955
53	0xbc91e6f5	-0.017810324
54	0xbc0cb302	-0.008587601
55	0x3c7ae566	0.015313482
56	0xbb1dd6f9	-0.0024084433
57	0xbc9a6334	-0.018846132
58	0xbb925d90	-0.00446672
59	0xbb843b5f	-0.004035398
60	0xbc4f8dec	-0.012668114
61	0xbc9e2022	-0.019302431
62	0xbb20f027	-0.0024557204
63	0xbc4f2f52	-0.012645559
64	0xbdb7aab6	-0.089681074
65	0xbbb794a8	-0.005602438
66	0x3e437f7a	0.19091597
67	0x3d33abbb	0.043864947
68	0x3bf4ea43	0.0074742152
69	0x3e296c71	0.16545273
70	0x3da83124	0.08212498
71	0xbd801fd4	-0.06256071
72	0xba18189f	-0.00058020087
73	0x3d07a051	0.033111874
74	0x3e1f555d	0.15559907
75	0xbd87a181	-0.06622601
76	0x3c7d5bbf	0.0154637685
77	0xbceb1e23	-0.028700894
78	0x3d26b827	0.040702965
79	0x3ddc37c4	0.10752824
80	0xbd83992e	-0.06425701
81	0x3e15e5f4	0.14638501
82	0xbd97321e	-0.07382606
83	0x3ba28e5a	0.0049608173
84	0xbd0a1159	-0.03370795
85	0xbd74e9c2	-0.05979324
86	0x3daaa3e8	0.08332044
87	0xbc9c5917	-0.01908545
88	0x3d1f6ee3	0.03892411
89	0x3bc5e21a	0.0060389163
90	0xbca398e6	-0.019970369
91	0xbb09393a	-0.002093865
92	0x3e39654c	0.18105048
93	0x3e12e7dc	0.1434626
94	0x3c7dd9c4	0.015493814
95	0x3d45695c	0.04819618
96	0xbd9ff288	-0.07809931
97	0x3d9d94c1	0.07694388
98	0x3dba9da3	0.09112098
99	0x3d939b13	0.072073124
100	0xb8b8c10e	-8.809763e-05
101	0x3db5235a	0.088446334
102	0x3d372431	0.04471225
103	0xbafe94c7	-0.0019423001
104	0x3c985ff9	0.01860045
105	0x3c805563	0.015665716
106	0x3dbf6fbb	0.09347483
107	0xbc3329e5	-0.010935281
108	0x3d2f53e8	0.04280463
109	0xbc0af7e9	-0.008481958
110	0x3cd9be1d	0.02657991
111	0x3d83b2b3	0.064305685
112	0xbd7d4173	-0.061829995
113	0x3d8e0836	0.0693516
114	0xbdc2e11c	-0.095155925
115	0x3be2cedf	0.0069216336
116	0xbd9907d2	-0.07472195
117	0xbd6a3647	-0.05718067
118	0x3d32a4f9	0.04361436
119	0x3c8612fa	0.01636647
120	0x3d9aa337	0.07550662
121	0xbccf1fdd	-0.025283748
122	0x3d6b8b35	0.057505805
123	0xbd317340	-0.0433228
124	0x3e6e4df9	0.23271932
125	0x3de3ac91	0.11116899
126	0x3bd77159	0.0065747914
127	0x3d575804	0.052574173
128	0xbd3abca7	-0.04559007
129	0x3dceb4ab	0.100930534
130	0x3dfd7775	0.123763
131	0xbd50b769	-0.050956164
132	0xbca69232	-0.020333383
133	0x3da68fdc	0.08132908
134	0xbe03bbc7	-0.128646
135	0xbe2513e9	-0.16120876
136	0x3d9923f7	0.07477563
137	0xbafe561e	-0.0019404327
138	0x3d7ff9c7	0.062494066
139	0xbd91ab40	-0.071127415
140	0x3cc73884	0.024318941
141	0x3d27905e	0.040909164
142	0x3c0c6c67	0.008570767
143	0x3d674ffb	0.05647276
144	0xbca5bd12	-0.020231757
145	0x3d1737f5	0.0369186
146	0xbd9f6a71	-0.07783974
147	0x3c16c89a	0.009203101
148	0xbca0b83e	-0.019619104
149	0xbcc9783e	-0.024593469
150	0x3d681be3	0.05666722
151	0x3c811a50	0.015759617
152	0xbd990508	-0.07471663
153	0xbbe81405	-0.0070824646
154	0x3d550d21	0.052014474
155	0xbc8cab07	-0.017171396
156	0x3dd3ef34	0.10348359
157	0x3dc657d6	0.09684722
158	0x3c993a7e	0.018704649
159	0x3da6c81e	0.08143638
160	0xbe63347b	-0.22187988
161	0xbe7653c9	-0.24055399
162	0x3d198825	0.037483353
163	0x3c9a2177	0.018814785
164	0x3cc8f6b6	0.024531703
165	0x3d62e04d	0.05538969
166	0x3d99a3dc	0.07501957
167	0xbb408497	-0.0029375905
168	0xbbdea61c	-0.006794704
169	0x3d073c50	0.033016503
170	0x3dd0e723	0.10200336
171	0xbebb998b	-0.3664058
172	0x3bb2697c	0.0054447036
173	0xbd180398	-0.037112802
174	0x3ca5eb19	0.020253705
175	0x3cdeada5	0.02718241
176	0xbcb70728	-0.02234228
177	0x3d276b0a	0.040873565
178	0xbd17d9ba	-0.037072875
179	0x3b48dc7a	0.0030648992
180	0xbcd77098	-0.026298806
181	0xbdf375cb	-0.118877016
182	0x3d14312d	0.03617971
183	0x3d07fb94	0.033198908
184	0x3dde5474	0.10855952
185	0xbd164142	-0.03668333
186	0xbbbe7a38	-0.0058129095
187	0xbc0fcd15	-0.008776923
188	0x3daf675a	0.085646346
189	0x3d9600cd	0.073243715
190	0x3c465bdb	0.012106861
191	0x3d205df2	0.039152093
192	0xbd313296	-0.043261133
193	0x3d9f70fa	0.077852204
194	0x3d84e7fc	0.0648956
195	0x3ce0260d	0.027361894
196	0xbb587672	-0.0033029583
197	0x3d756c7b	0.05991791
198	0x3cdffa52	0.027341042
199	0x3dcfdf42	0.10150005
200	0x3caae730	0.020862192
201	0x3d04fe02	0.032468803
202	0x3d72d02e	0.059280567
203	0xbc9b6d64	-0.01897306
204	0x3c6a662b	0.014306585
205	0x3c265d9b	0.010154153
206	0x3d163a23	0.036676537
207	0x3d08c9af	0.033395465
208	0xbd36f2f6	-0.0446653
209	0x3d43e36f	0.04782432
210	0xbdac0435	-0.0839924
211	0xbc0f9248	-0.0087629035
212	0xbd65826e	-0.05603259
213	0xbcbc141e	-0.022958811
214	0x3c6c7f62	0.014434667
215	0x3ca966ba	0.020678867
216	0x3db4c688	0.08826929
217	0xbda53ab6	-0.08067839
218	0x3da2f217	0.07956331
219	0xbb90d7e5	-0.004420268
220	0x3dc0d392	0.09415354
221	0x3d4dc3a7	0.050235417
222	0x3cefd56d	0.029276574
223	0x3d6365f2	0.055517145
224	0xbd77bc62	-0.06048239
225	0xbb572528	-0.0032828543
226	0x3dba4354	0.09094873
227	0x3cdb0308	0.026734844
228	0xbb41a275	-0.0029546295
229	0x3d957a0b	0.072986685
230	0x3d7ac8f7	0.06122681
231	0xbdc29fa1	-0.09503103
232	0xbc39ef57	-0.011348567
233	0x3ceb1c21	0.028699936
234	0x3d7eff27	0.06225505
235	0xbce0a15f	-0.027420698
236	0x3ca38271	0.01995966
237	0x3c9f1884	0.01942087
238	0x3c1843aa	0.009293476
239	0x3d3ba628	0.045812756
240	0xbcfc9785	-0.030833969
241	0x3d645dcc	0.055753514
242	0xbd8ec5eb	-0.069713436
243	0x3ba0010b	0.004882937
244	0xbd2550e1	-0.040360335
245	0xbd50d63f	-0.05098557
246	0x3d129b6c	0.035792753
247	0xbb7491fe	-0.0037318463
248	0x3cd3d46b	0.025858125
249	0x3c229c5c	0.009924974
250	0x3c6f25d0	0.014596418
251	0xbc527abd	-0.012846646
252	0x3dd4410b	0.103639685
253	0x3d8adfae	0.06780945
254	0x3c33cb20	0.010973722
255	0x3ce6a03f	0.028152583

layer2.bias f4 [64]
0	0xbc99d0ae	-0.018776264
1	0xbc91e868	-0.017811015
2	0x3d606785	0.054786224
3	0x3d801a6e	0.06255041
4	0x3d162afc	0.036662087
5	0x3d64b8e2	0.05584038
6	0x3d3a8005	0.045532245
7	0x3d55bf52	0.05218441
8	0xbc24f280	-0.010067582
9	0xbd09e70d	-0.033667613
10	0x3d84f9bd	0.06492946
11	0x3d8bf8c7	0.0683456
12	0xbbff569e	-0.007792308
13	0x3d8fe571	0.07026184
14	0xbc4a3aab	-0.012343089
15	0x3d3b4aad	0.045725513
16	0x3d54cf5e	0.051955573
17	0x3d0245a2	0.03180469
18	0x3c71a5d3	0.014749008
19	0x3d158308	0.036501914
20	0x3cf0beb0	0.029387802
21	0xbda41904	-0.08012584
22	0x3b00dc82	0.0019662683
23	0x3c860ee1	0.016364517
24	0x3ced25bb	0.028948655
25	0x3c1a9994	0.00943603
26	0xbb610e01	-0.0034340622
27	0x3d61766c	0.055044577
28	0x3d4c5020	0.0498811
29	0x3d54adcf	0.05192357
30	0x3ce33580	0.027735472
31	0x3d7e68c8	0.062111646
32	0xbd9f9d84	-0.077937156
33	0xbc1ba079	-0.009498709
34	0x3b87c690	0.0041435435
35	0x3d7e6229	0.06210533
36	0xbc698336	-0.0142524745
37	0x3ca476a3	0.020076102
38	0xbdd16bb2	-0.102256194
39	0x3d3b256a	0.045689978
40	0xbc8d2606	-0.017230045
41	0xbba36cd6	-0.0049873395
42	0xbc687d6d	-0.01419006
43	0xbcd23c45	-0.025663504
44	0xbdf59bcd	-0.11992607
45	0x3d26cca8	0.04072252
46	0xbd3e0627	-0.046392586
47	0x3d087ef1	0.033324186
48	0x3cd16998	0.025563046
49	0x3d4c805f	0.04992711
50	0xbb3f421f	-0.0029183698
51	0x3c9b8e7e	0.018988844
52	0xbb23a803	-0.002497197
53	0x3d5c4313	0.053774904
54	0x3d7105f2	0.05884356
55	0x3c45156b	0.012029032
56	0xbb0a168f	-0.0021070575
57	0xbbe9d9ef	-0.0071365754
58	0xbbc684dd	-0.006058319
59	0x3d1f0322	0.038821347
60	0x3d094000	0.0335083
61	0xbd5321c3	-0.05154587
62	0xbc158f23	-0.009128365
63	0x3d67b3df	0.056568023

layer3.weight f4 [128, 64]
0	0x3def76af	0.11692559
1	0xbbdfb877	-0.00682741
2	0x3dcc0271	0.09961403
3	0x3d901009	0.070343085
4	0x3d93c6fc	0.07215688
5	0x3e6f6100	0.23376846
6	0x3d9eb00b	0.07748421
7	0x3d4bd695	0.04976519
8	0x3b55321f	0.0032531095
9	0x3eaa65b8	0.3328073
10	0x3dba5b89	0.0909949
11	0x3e2d0874	0.16897756
12	0x39ea0812	0.0004463797
13	0x3e125094	0.1428855
14	0x3d2dcdb6	0.04243251
15	0x3d5c0b52	0.053721733
16	0xbc8f390f	-0.017483262
17	0xbd0fe626	-0.035131596
18	0x3db188ae	0.08668648
19	0x3dc1dc62	0.09465863
20	0x3c1b701d	0.009487179
21	0x3b97eebc	0.0046366137
22	0xbdd6c081	-0.10485936
23	0xbdc4b95f	-0.09605669
24	0x3ab37baf	0.0013693477
25	0x3dcc0c4c	0.09963283
26	0x39309c18	0.00016842817
27	0x3df032a1	0.11728407
28	0x3d19562b	0.03743569
29	0x3e829c2a	0.2550977
30	0x3d0fdde1	0.03512371
31	0x3d60cc44	0.054882303
32	0x3e6718e3	0.22568087
33	0xb99c42f1	-0.00029804514
34	0x3d40c92e	0.04706686
35	0x3da4894b	0.08033999
36	0xbbc1a173	-0.005909139
37	0x3d64fcdb	0.055905204
38	0x3f08bbd3	0.53411597
39	0x3dbf2fae	0.09335266
40	0x3dd70f14	0.10500923
41	0x3d2eacab	0.042645138
42	0x39b7ce6a	0.0003505827
43	0x3d91107d	0.07083223
44	0x3ddf547e	0.109047875
45	0xbc8a99fe	-0.016919132
46	0x3d8e9ef2	0.0696391
47	0xbcaf376c	-0.021388732
48	0x3d78e6f1	0.060767118
49	0x3db27d43	0.08715298
50	0x3dd7c6bc	0.105359524
51	0x3cccc0b7	0.024994237
52	0x3bc14abb	0.005898801
53	0x3dbe13e5	0.09281138
54	0x3e3fe078	0.18737972
55	0x3d0ec8e5	0.034859557
56	0x3b42927e	0.0029689367
57	0x3d881b51	0.06645835
58	0x3c6d4e15	0.014483948
59	0xbced9fc5	-0.029006848
60	0x3ccb62e6	0.024827432
61	0xbe119997	-0.14218746
62	0x39e5d459	0.00043836495
63	0x3d509aa3	0.050928723
64	0x3b36e807	0.0027909295
65	0xbbd19d08	-0.0063968934
66	0xbad64100	-0.0016346276
67	0x3a9ddc17	0.0012043741
68	0xbc27dad9	-0.010245048
69	0x3ba39a0e	0.00499273
70	0xbbfe5617	-0.0077617276
71	0xbb70f382	-0.0036766236
72	0x3b6b76f5	0.0035929058
73	0xbb74a058	-0.0037327018
74	0x3b9a7869	0.004714061
75	0xbbe6485e	-0.00702767
76	0xba735828	-0.00092828507
77	0xbac39cd4	-0.0014924058
78	0xbbb855b3	-0.0056254505
79	0x3babc6f5	0.0052422234
80	0x3b5dc619	0.003384
81	0x3a9d1672	0.0011984839
82	0xba6a89b1	-0.0008946909
83	0xbc1a3358	-0.009411655
84	0x3ad26220	0.0016050972
85	0xbb1fd0bc	-0.002438589
86	0xbb076e3d	-0.0020665072
87	0xbc669aaf	-0.014074965
88	0x3b8bf7fd	0.004271506
89	0x3ac29b5c	0.0014847326
90	0x3b88d8e3	0.0041762455
91	0xbb120845	-0.002228276
92	0xbaeef49f	-0.0018230862
93	0x3a35e31f	0.0006938446
94	0xbb8920d0	-0.0041848198
95	0xb9b915ef	-0.00035302292
96	0x3ba19456	0.004931013
97	0xbb80718b	-0.0039197854
98	0x3b137188	0.002249809
99	0x3a987691	0.0011632015
100	0xbb8b414d	-0.004249728
101	0xba9eba40	-0.001210995
102	0xbb9ee2f8	-0.004848834
103	0xbb823050	-0.0039730445
104	0x3adab253	0.0016685225
105	0xbc1ebb23	-0.009688172
106	0x3ba167fc	0.004925726
107	0x3b071ba5	0.0020615843
108	0xbb832bf5	-0.004003043
109	0xbbadc34c	-0.005302822
110	0x3b97e32f	0.0046352367
111	0xbbe38d14	-0.006944308
112	0xba88af76	-0.0010428268
113	0xbbf2f327	-0.00741424
114	0x39971128	0.00028813747
115	0xbc2ccafb	-0.010546441
116	0x3b5998e3	0.00332027
117	0x3b3a2f37	0.002840949
118	0x3bb4e342	0.0055202553
119	0x3ae1bc3e	0.0017222238
120	0x3b862552	0.0040938044
121	0xbac7c842	-0.0015242177
122	0x3b985cd0	0.004649736
123	0x3ad52820	0.0016262569
124	0xbc2edfcb	-0.010673474
125	0x3aa06b2b	0.001223897
126	0xbb1ae938	-0.0023637544
127	0xbbdcf2bf	-0.006742805
128	0x3d032294	0.0320154
129	0x3c3b7d2a	0.011443416
130	0x3cd54409	0.026033418
131	0x3d02b8cd	0.03191452
132	0x3cedb422	0.029016558
133	0x3df0f33e	0.11765145
134	0x3d030d04	0.031994835
135	0x3c91e01c	0.017807059
136	0xbbfd4fbc	-0.0077304523
137	0x3dad100c	0.08450326
138	0x3cc8805c	0.024475269
139	0x3d1db36e	0.038501196
140	0x3b4672ce	0.0030280831
141	0x3da5efe8	0.08102399
142	0x3ce05ccc	0.027387999
143	0x3ced4c9c	0.028967194
144	0x3adddfd3	0.0016927667
145	0xbd53f576	-0.05174776
146	0x3d04da5c	0.032434806
147	0x3c8552ec	0.016274892
148	0x3c70db3f	0.01470071
149	0xbc5ed90b	-0.013601552
150	0x3cc7250b	0.024309656
151	0xbce2e27f	-0.027695892
152	0x3c852471	0.016252728
153	0x3d6572cd	0.056017686
154	0xbb0cfa41	-0.0021511468
155	0x3cfa52a8	0.030556992
156	0x3d7ed2e8	0.062212855
157	0x3cdfa1b8	0.027298793
158	0x3cd780af	0.026306478
159	0x3cb3532c	0.021890245
160	0x3e235f07	0.15954219
161	0xbab21a13	-0.0013588093
162	0x3cd9cf96	0.026588243
163	0x3d92991d	0.0715811
164	0xba77dcd3	-0.00094552076
165	0x3cb82d9d	0.022482688
166	0x3f025669	0.509131
167	0x3cd7a32b	0.026322922
168	0x3d0908f9	0.033455823
169	0x3cb20080	0.021728754
170	0x3b33b0cb	0.002741861
171	0x3d027693	0.031851362
172	0x3ef4f292	0.47841316
173	0xbce62325	-0.02809293
174	0x3da65dc1	0.08123351
175	0xbd505069	-0.050857935
176	0x3d735e7f	0.05941629
177	0x3d05a46c	0.032627508
178	0x3d94ca27	0.0726512
179	0x3cf900d5	0.030395905
180	0x3acfc0cc	0.0015850305
181	0x3cd45560	0.025919616
182	0x3d1e4318	0.038638204
183	0x3c9d10e7	0.019173099
184	0x393d817a	0.00018072678
185	0x3cc23e21	0.023711266
186	0x3c109492	0.008824484
187	0xbce1a306	-0.027543556
188	0x3ca61073	0.020271515
189	0xbc23767f	-0.009976982
190	0x3b2f8f37	0.0026788244
191	0x3c5f3295	0.0136229
192	0x3cc922a6	0.024552654
193	0xba83b7f3	-0.0010049328
194	0x3d2da475	0.042393167
195	0x3d780635	0.060552794
196	0x3d7a4e61	0.061109904
197	0x3df91abc	0.12163302
198	0x3d430036	0.047607623
199	0x3d54a860	0.051918387
200	0xbbaf420e	-0.0053484505
201	0x3d9c0c9e	0.07619594
202	0x3d73ec32	0.059551425
203	0x3dc539e5	0.09630183
204	0xb91823bb	-0.0001450916
205	0x3e4be9ab	0.19913356
206	0x3cf9b639	0.030482398
207	0x3ccc0887	0.02490641
208	0x3b57afbd	0.0032911145
209	0xbd2f0c10	-0.042736113
210	0x3cb27645	0.021784911
211	0x3d215eb4	0.039396957
212	0x3cbb7307	0.022881998
213	0xbc9df7c1	-0.019283177
214	0xbe3a0f9b	-0.18170016
215	0xbd8bfaaa	-0.0683492
216	0x3d0bb8fc	0.03411196
217	0x3d4fcda8	0.05073324
218	0x3bbaa3bf	0.0056957896
219	0x3d901f86	0.070372626
220	0x3d8e605e	0.06951974
221	0x3da0d38b	0.078528486
222	0x3d49c95b	0.049264293
223	0x3d3b7809	0.04576877
224	0x3e0546a4	0.13015229
225	0x3b9528bf	0.0045519765
226	0x3c833744	0.016017564
227	0x3e0515ba	0.1299657
228	0x3bf4923f	0.007463723
229	0x3c4a6aac	0.012354534
230	0x3ef0b4d4	0.4701296
231	0x3d466d15	0.048443872
232	0x3cd81216	0.026375812
233	0x3cdbe056	0.02684037
234	0x3b44df8d	0.0030040473
235	0x3cf41ab8	0.029797897
236	0x3ebbdc0f	0.3669133
237	0xbccade4b	-0.0247642
238	0x3d932911	0.07185567
239	0xbd47d9c9	-0.04879168
240	0x3da5e5e6	0.0810049
241	0x3d92a4bc	0.07160327
242	0x3d873d5f	0.066035025
243	0x3d3fcbde	0.046825282
244	0x3b8f35e7	0.0043704393
245	0x3d9fde34	0.07806054
246	0x3d8ccd92	0.06875147
247	0x3c7f31cf	0.01557584
248	0xbbe5d6ac	-0.0070141163
249	0x3cf1ac13	0.029500997
250	0x3c201f23	0.009773049
251	0xbcb34f8c	-0.021888517
252	0x3c9c1d11	0.019056829
253	0xbc15f5b9	-0.009152823
254	0x3a8f507e	0.0010934023
255	0x3d33c681	0.04389048

layer3.bias f4 [128]
0	0x3d126a82	0.035746105
1	0x3abf3c72	0.0014590158
2	0xbcab8058	-0.020935223
3	0x3cf1f5e0	0.029536188
4	0x3e029bea	0.12754789
5	0x3d244d6f	0.04011291
6	0x3e0f4f94	0.139952
7	0x3d265c53	0.04061539
8	0x3e34f5d6	0.17671904
9	0x3e20c4b9	0.15700044
10	0x3d4a8241	0.049440626
11	0xbd921ba7	-0.071341805
12	0x3d8a84c2	0.06763603
13	0x3d4da718	0.05020818
14	0x3d21c193	0.039491247
15	0x3d3ee86a	0.046608366
16	0x3d0821d8	0.0332354
17	0x3d49fe02	0.049314506
18	0x3d3ea150	0.04654056
19	0x3d1afd77	0.03783938
20	0x3d54da21	0.051965836
21	0x3d3f4d10	0.046704352
22	0x3d25cb17	0.040476885
23	0xbbde2bde	-0.0067801317
24	0x3d2cadb9	0.042157862
25	0x3e662e1d	0.22478528
26	0x3d0dcce4	0.034619227
27	0x3d1d1016	0.03834542
28	0x3ae21d80	0.0017251223
29	0x3d45427c	0.048159108
30	0xba157c29	-0.00057024
31	0x3d3b8ff8	0.045791596
32	0xba8a285a	-0.001054059
33	0x3d3be264	0.0458702
34	0x3d439f4f	0.04775935
35	0xbaa78e5d	-0.0012783516
36	0x3da9f824	0.08299282
37	0x3d1d4df7	0.03840443
38	0xbd3bdb2f	-0.045863327
39	0x3d17bcd9	0.037045334
40	0xbbe6b43c	-0.0070405286
41	0x3d560455	0.052250225
42	0x3d314d71	0.043286745
43	0xbbe42e1b	-0.006963504
44	0xbaad10c0	-0.0013203844
45	0xbc6fc843	-0.014635148
46	0xbb5b48c7	-0.0033460127
47	0xbd4126b5	-0.047156055
48	0x3d425954	0.04744847
49	0x3d15a385	0.036532898
50	0x3d2e40ad	0.04254215
51	0x3e17b4e0	0.14815092
52	0x3e7618b8	0.24032867
53	0x3d350be0	0.044200778
54	0x3e43697e	0.19083211
55	0xbcb7d88b	-0.022442123
56	0xbd7af7c9	-0.061271463
57	0xbc023481	-0.007947088
58	0xbdccc943	-0.09999325
59	0x3d16feed	0.03686421
60	0x3d4d1c28	0.05007568
61	0x3d2a062d	0.041509796
62	0xbbeb2adf	-0.0071767415
63	0x3d12e9a6	0.035867356
64	0x3cf995ba	0.030466903
65	0xbcf81660	-0.030284107
66	0xbb1f9fe2	-0.0024356772
67	0x3e792edb	0.2433428
68	0x3d4de337	0.050265517
69	0x3d4af65f	0.049551364
70	0x3d2ee7f0	0.04270166
71	0x3d2fee02	0.04295159
72	0xbccfb35c	-0.02535408
73	0x3d3d6680	0.04624033
74	0x3d2926ec	0.041296884
75	0xbadfa25e	-0.0017061939
76	0xbc4f9fb9	-0.012672358
77	0xbd4bc4c5	-0.0497482
78	0x3e237636	0.15963063
79	0x3d1c9586	0.038228534
80	0x3d45629b	0.04818974
81	0x3d13694c	0.03598909
82	0xbd2c3d01	-0.042050365
83	0xbbb26e53	-0.0054452806
84	0x3d1bfb4c	0.038081452
85	0x3d4486bc	0.047980055
86	0xbaad854a	-0.0013238576
87	0xbb417cc5	-0.0029523831
88	0x3d4d320f	0.050096568
89	0x3d4910d0	0.0490883
90	0x3e57cc0e	0.21073934
91	0xbccd9d16	-0.025099318
92	0xbd6ff5d3	-0.058584046
93	0x3dd16ec7	0.10226207
94	0x3d3d9342	0.046283014
95	0x3e50d6bb	0.20394413
96	0x3d437e5a	0.04772792
97	0xbb9caa5e	-0.0047810515
98	0x3e65950e	0.22420141
99	0x3d1c2260	0.03811872
100	0x3d3c0fcc	0.045913503
101	0x3d366d8a	0.04453806
102	0x3e7b9f51	0.24572493
103	0x3d319205	0.043352146
104	0xbd17fb0a	-0.037104644
105	0x3d5e1543	0.054219496
106	0x3d48d4cb	0.04903106
107	0x3d421bad	0.047389675
108	0x3e7d29ac	0.24722928
109	0xbc921faf	-0.017837374
110	0x3d35dc87	0.044399764
111	0x3d4c9b64	0.04995288
112	0xbd65a587	-0.056066062
113	0xbb5213a0	-0.0032055154
114	0x3d37b031	0.044845764
115	0x3d266d04	0.04063131
116	0x3d033682	0.032034405
117	0x3d105d83	0.03524543
118	0x3d4f0eca	0.050551213
119	0x3d3ff338	0.04686281
120	0xbcc9a6a9	-0.024615603
121	0x3d51ba7d	0.05120324
122	0x3d3bc935	0.045846183
123	0x3e564f30	0.20928645
124	0x3e430ac6	0.19047078
125	0xbd4e210c	-0.050324485
126	0xbd3d3b6e	-0.046199255
127	0x3d3ca05c	0.046051368

layer4.weight f4 [64, 128]
0	0x3e5d719e	0.21625373
1	0xba313b1a	-0.0006760821
2	0x3ccf1866	0.025280189
3	0x3cfd0c99	0.030889796
4	0xbd4af101	-0.049546245
5	0x3d9f48d4	0.07777563
6	0xbccbe4df	-0.024889408
7	0x3e0ca55c	0.13734955
8	0xbcc95e5c	-0.024581127
9	0xbda0f849	-0.07859857
10	0x3d99f529	0.07517464
11	0x3d3a386d	0.045463968
12	0x3db3e64e	0.087841615
13	0x3d323391	0.04350621
14	0x3db32f40	0.087492466
15	0x3d8af08d	0.06784163
16	0x3d98a9cc	0.07454261
17	0x3e0f7cf7	0.14012514
18	0x3d66c03e	0.05633568
19	0x3dabf242	0.083958164
20	0x3d4b1de6	0.04958906
21	0x3da02425	0.07819394
22	0x3d79cc93	0.060986113
23	0x3b0ef798	0.0021815058
24	0x3dbde601	0.092723854
25	0x3c733e59	0.014846408
26	0x3ebed3a3	0.3727084
27	0x3d9c68f7	0.07637208
28	0xba938dbb	-0.0011257449
29	0x3d999bec	0.07500443
30	0xbb8aa6e5	-0.004231321
31	0x3d37cf06	0.044875167
32	0x3b785f82	0.0037898724
33	0x3dcf7a40	0.10130739
34	0x3d957678	0.07297987
35	0xbb167ae3	-0.002296143
36	0x3d40b604	0.047048584
37	0x3da2046c	0.07911
38	0x3d100a3b	0.035166007
39	0x3e6359da	0.22202244
40	0x3a55fb0e	0.0008162715
41	0x3d4ad9d9	0.049524162
42	0x3d725d9d	0.059171308
43	0x3ab159ec	0.0013530827
44	0x39d7643a	0.0004108267
45	0x3cef8455	0.029237906
46	0x3b2b7afb	0.0026165831
47	0x3cf6f7ae	0.0301474
48	0x3d52c91b	0.05146132
49	0x3da423ef	0.08014666
50	0x3d61b87a	0.05510757
51	0xbd1daf72	-0.038497396
52	0x3c01eeab	0.007930438
53	0x3d81092f	0.0630058
54	0xbce9abb0	-0.02852425
55	0x3cc76b2b	0.024343094
56	0x3ed0a122	0.40747935
57	0x3b05a01e	0.0020389627
58	0x3dcf53a4	0.10123375
59	0x3d685607	0.056722667
60	0x3d83dadf	0.06438231
61	0x3d926150	0.07147467
62	0x3aa407a9	0.001251449
63	0x3f0781e1	0.52932554
64	0x3ccd2972	0.025044177
65	0x3d019612	0.03163726
66	0xbaab5c9a	-0.0013073862
67	0x3c60667b	0.013696308
68	0x3d84a791	0.06477273
69	0x3db0cd4a	0.08632906
70	0x3da54641	0.080700405
71	0x3e1cc12a	0.15308061
72	0x3cf1e168	0.029526427
73	0x3d63db32	0.055628963
74	0x3d7d13f2	0.0617866
75	0x39b8f53b	0.00035277926
76	0xbbc055de	-0.005869611
77	0x3cfa139c	0.030526929
78	0xbd845ebb	-0.06463381
79	0x3ded21be	0.115787014
80	0x3e399d1b	0.18126337
81	0x3d2b8311	0.04187304
82	0x3cd14b84	0.025548704
83	0x3b509ad4	0.0031830566
84	0x3ed274c7	0.4110472
85	0x3d5d74e9	0.054066572
86	0xbcd9db5b	-0.026593855
87	0xba2b455a	-0.00065334665
88	0x3d42930e	0.047503524
89	0x3d4104a3	0.047123563
90	0xbb84466b	-0.004036715
91	0x3d04c6ac	0.03241603
92	0x3d3aab8c	0.045573756
93	0xbdff0e4c	-0.12453899
94	0x3d864cc4	0.06557611
95	0xbc500a74	-0.012697805
96	0x3d8133ca	0.06308706
97	0x3a98e704	0.0011665528
98	0x3abc0d28	0.0014347183
99	0x3f0ec415	0.5576795
100	0x3d73951c	0.059468374
101	0x3d81d692	0.06339754
102	0x3c9d6c13	0.019216573
103	0x3e54e774	0.20791417
104	0x3d0dcb5a	0.03461776
105	0x3d481e69	0.048857126
106	0x3d6079fb	0.05480383
107	0x3d3659d5	0.044519264
108	0x3cb126cf	0.02162495
109	0x3db253ba	0.08707376
110	0x3d7e163a	0.062032916
111	0x3d58fd82	0.05297614
112	0x3d045fa7	0.032317784
113	0x3b7cfd4c	0.0038603125
114	0x3d9252bd	0.07144687
115	0x3db8cf45	0.090239085
116	0x3d9c023d	0.076176144
117	0x3d7d4d65	0.061841387
118	0x3d8cb7a0	0.06870961
119	0x3d8a23e9	0.067451306
120	0x3d12f892	0.035881586
121	0x3d4ef6d3	0.05052836
122	0x3d86dd8b	0.06585225
123	0xbc03ee2b	-0.008052389
124	0xbcb0a616	-0.021563571
125	0x3cfce7d8	0.03087227
126	0x3d0523e1	0.03250492
127	0x3d52f4f6	0.051503144
128	0x3e1e3688	0.1545049
129	0x39264d19	0.00015859715
130	0x3caddab3	0.021222448
131	0x3ceb3409	0.028711336
132	0xbd37fe1b	-0.04492007
133	0x3d700ec2	0.058607824
134	0xbc8bc8f5	-0.017063597
135	0x3dbcfa80	0.092274666
136	0xbc8af4ec	-0.016962491
137	0xbd7617fd	-0.06008147
138	0x3d7285ee	0.059209757
139	0x3d0cc3a8	0.03436628
140	0x3d8333f6	0.06406395
141	0x3d194b9a	0.037425615
142	0x3d83425e	0.06409143
143	0x3d4eb9f9	0.050470326
144	0x3d5581f4	0.052125886
145	0x3dc55c1a	0.096367076
146	0x3d3a8f43	0.04554678
147	0x3d863e3d	0.0655484
148	0x3d338b58	0.04383406
149	0x3d635cad	0.055508304
150	0x3d4f23e2	0.05057133
151	0xbaf7140a	-0.0018850577
152	0x3d965d4b	0.07342013
153	0x3c37358b	0.011182199
154	0x3e8a32f5	0.26992002
155	0x3d73ce22	0.059522755
156	0x3b9938dc	0.0046759676
157	0x3d697c3b	0.05700324
158	0xbadc8fed	-0.0016827561
159	0x3d0f1601	0.034933094
160	0x3af94e59	0.0019020542
161	0x3d8b3921	0.06798006
162	0x3d587cab	0.052853268
163	0x3bac829b	0.005264593
164	0x3d05ef40	0.03269887
165	0x3d7da1de	0.061921947
166	0x3caa59e5	0.020794818
167	0x3e195785	0.14974792
168	0x3a0b1246	0.0005305152
169	0x3d0a83a8	0.033816963
170	0x3d1ff750	0.039054215
171	0xb9796821	-0.00023785282
172	0xba9c3ba4	-0.001191963
173	0x3ce6d9e5	0.028180072
174	0x3b5975db	0.003318182
175	0x3ca54d80	0.020178556
176	0x3d1f6899	0.03891811
177	0x3d75429f	0.059877988
178	0x3d432083	0.047638427
179	0xbd168896	-0.036751352
180	0x3c072c1a	0.008250261
181	0x3d3230cc	0.043503568
182	0xbc9f5f74	-0.019454695
183	0x3cc90db0	0.02454266
184	0x3e9863d9	0.29763678
185	0x3b42ba2b	0.0029713016
186	0x3da2e76e	0.07954298
187	0x3d25da24	0.04049124
188	0x3d43f93b	0.047845107
189	0x3d5e777e	0.054313175
190	0xbb977153	-0.0046216636
191	0x3ecc1d32	0.39866024
192	0x3cc2564a	0.023722786
193	0x3ce61cca	0.0280899
194	0x390ca2cd	0.00013412088
195	0x3bed4b69	0.0072416556
196	0x3d338d40	0.04383588
197	0x3d78917e	0.060685627
198	0x3d6e16d9	0.058127258
199	0x3de5d20e	0.112217054
200	0x3cdb0fc6	0.02674092
201	0x3d39ba2b	0.04534356
202	0x3d3fcbf0	0.04682535
203	0x3b83ccf2	0.004022234
204	0xbaf9d2da	-0.0019060031
205	0x3cbba234	0.022904493
206	0xbd5eb4a8	-0.054371506
207	0x3da8d6a1	0.08244062
208	0x3e0423f6	0.12904343
209	0x3d0dca67	0.034616854
210	0x3ccc4609	0.02493574
211	0x3b6197af	0.0034422686
212	0x3e8a4b17	0.27010414
213	0x3d1c3ae7	0.03814211
214	0xbcc0063d	-0.023440475
215	0x3badfbc3	0.0053095534
216	0x3d0d3492	0.034473963
217	0x3ce2eb56	0.027700108
218	0xbb8b745d	-0.004255815
219	0x3c991c8b	0.018690368
220	0x3d074b31	0.033030692
221	0xbdf6a607	-0.12043386
222	0x3d546e38	0.051862925
223	0xbbf6c437	-0.007530715
224	0x3d3bf201	0.04588509
225	0x39ecdf5f	0.00045179852
226	0x3c002ecd	0.007823658
227	0x3f02ba4a	0.51065505
228	0x3d2df64c	0.042471215
229	0x3d5c2ae3	0.053751837
230	0x3c971f1c	0.018447451
231	0x3e0e5bf9	0.13902272
232	0x3ce44f51	0.027869852
233	0x3d37d9fb	0.044885617
234	0x3d06be31	0.032896224
235	0x3d10e949	0.035378728
236	0x3c5e3820	0.013563186
237	0x3d82d9f9	0.06389231
238	0x3d319419	0.043354128
239	0x3d399da5	0.045316357
240	0x3cccfe1f	0.025023518
241	0xba790617	-0.00094995036
242	0x3d4ecf79	0.05049083
243	0x3d8555b0	0.06510484
244	0x3d6843ce	0.05670529
245	0x3d4a6e98	0.049421877
246	0x3d47058e	0.04858928
247	0x3d3100ce	0.043213658
248	0x3ce5484d	0.027988577
249	0x3cf6cf96	0.030128282
250	0x3d58cbc3	0.052928697
251	0xbbea261b	-0.007145656
252	0xbc74ff79	-0.014953488
253	0x3cb42dc4	0.021994479
254	0x3cc493f1	0.023996325
255	0x3d199de9	0.03750411

layer4.bias f4 [64]
0	0x3cf81571	0.030283662
1	0x3cef83a1	0.02923757
2	0x3cdc70ea	0.02690931
3	0xbb9bae40	-0.004750997
4	0x3ea0b73c	0.31389797
5	0x3d02401e	0.03179943
6	0x3eabf1f5	0.33583036
7	0x3e23c0be	0.15991494
8	0x3cabc188	0.020966306
9	0xbb846604	-0.0040404815
10	0x3d09a1ab	0.033601444
11	0xbb98eaff	-0.0046666856
12	0x3d008f68	0.031386763
13	0x3e4033bd	0.18769737
14	0x3cf0f580	0.029413939
15	0x3ea8180c	0.32830846
16	0xbb272906	-0.002550663
17	0xbbacb0d6	-0.005270104
18	0xbb3fba56	-0.0029255352
19	0xbb20efb5	-0.002455694
20	0xbb8bd69a	-0.004267526
21	0x3e2a58a0	0.1663537
22	0x3aa825b6	0.0012828622
23	0x3b4d12d2	0.0031291735
24	0x3e09ed40	0.1346941
25	0x3aab0493	0.0013047628
26	0xbb9c590a	-0.0047713565
27	0x3cb3bfb0	0.02194199
28	0x3e2d9d6b	0.16954581
29	0x3cdb3c0f	0.026762037
30	0x3e7d536d	0.24738856
31	0x3ea976de	0.330985
32	0x3e12b618	0.14327276
33	0x3e578096	0.21045145
34	0x3e68662c	0.22695225
35	0x3e631c69	0.22178806
36	0x3d00fb56	0.031489693
37	0x3cd7307c	0.026268236
38	0x3cd921fd	0.026505465
39	0xba902d31	-0.0010999796
40	0x3e0e8419	0.13917579
41	0x3ce1dc42	0.027570847
42	0x3e78dd1d	0.24303098
43	0x3e592a9c	0.2120766
44	0xbcb65c55	-0.022260824
45	0x3e6acfe8	0.22930872
46	0x3cf0db35	0.029401401
47	0x3e68a44b	0.22718923
48	0x3e508429	0.20362915
49	0x3d01d343	0.031695616
50	0x3af4e81b	0.0018684895
51	0x3cafe953	0.021473562
52	0x3ead70d3	0.3387514
53	0x3e54bbb2	0.20774725
54	0x3cd0f28b	0.025506278
55	0x3ea1488f	0.3150067
56	0x3c990272	0.018677924
57	0x3eaa4e14	0.33262694
58	0xbb821946	-0.003970298
59	0x3b28e860	0.0025773272
60	0x3e2fad12	0.17155865
61	0x3eb448bf	0.3521175
62	0x3eaec3a0	0.34133625
63	0x3cad0008	0.021118179

layer5.weight f4 [32, 64]
0	0x3d3f62bb	0.046725016
1	0x3ce0480e	0.027378108
2	0x3d02c1f9	0.031923268
3	0xbb1299b3	-0.0022369444
4	0x3d0d3da5	0.034482617
5	0x3d047d93	0.03234632
6	0x3d1f8501	0.0389452
7	0x3d13861d	0.036016572
8	0x3df531b0	0.11972368
9	0x3b96bd67	0.0046002152
10	0x3cfb334f	0.030664114
11	0xbb9d0ba5	-0.004792648
12	0x3cb90ee8	0.022590116
13	0x3c82f268	0.015984729
14	0x3d059a81	0.03261805
15	0x3e9444f2	0.2895885
16	0x3a84b902	0.0010125937
17	0xbb3baf52	-0.0028638435
18	0xbac38766	-0.0014917671
19	0x3a978417	0.0011559752
20	0xb93924ca	-0.0001765668
21	0x3b97423c	0.00461605
22	0x3ba846a5	0.0051353746
23	0xbb16d903	-0.0023017533
24	0xbe8eab1a	-0.27864915
25	0x3b8bb93c	0.004264025
26	0xbbb5bbc2	-0.005546064
27	0x3ce81e70	0.028334826
28	0x3c1e89e5	0.009676431
29	0x3d3f6dad	0.046735454
30	0x3d890b5f	0.06691622
31	0x3d1b4050	0.03790313
32	0xbe8b428a	-0.27199203
33	0x3cb9ea4c	0.02269473
34	0x3d34704a	0.0440524
35	0x3c8dc5e3	0.017306274
36	0x3d02fb2e	0.031977825
37	0x3d1765c7	0.036962297
38	0x3d1e0e5c	0.038587913
39	0xbbb03ed2	-0.0053785825
40	0xbf609487	-0.87726635
41	0x3d0b9b5f	0.03408372
42	0x3cd73c1c	0.02627378
43	0x3c66373c	0.014051255
44	0xbabe5615	-0.0014521504
45	0x3d4c3d6e	0.04986327
46	0x3d4d8697	0.050177183
47	0x3cd668c8	0.02617301
48	0x3cebf11c	0.028801493
49	0x3cad6eb5	0.021170953
50	0x3bdf5256	0.006815235
51	0x3d2dcbb3	0.04243059
52	0x3d0a7bbe	0.033809416
53	0x3cd13f5c	0.025542907
54	0x3d25ac09	0.04044727
55	0x3cdf269b	0.027240088
56	0x3d1dc235	0.03851529
57	0x3ce60a55	0.028081099
58	0x3bc701fb	0.006073234
59	0xbbac1836	-0.0052519096
60	0xbeb662d5	-0.35622278
61	0x3d1b5a43	0.037927877
62	0x3d473765	0.048636813
63	0x3f0b408a	0.54395354
64	0x3d069633	0.032858085
65	0x3ce889b4	0.028385974
66	0x3d0a8127	0.033814576
67	0x3a77bc6e	0.00094503805
68	0x3cf508f9	0.029911505
69	0x3d0537de	0.032523982
70	0x3d183629	0.037161026
71	0x3cf6f7fc	0.030147545
72	0x3dcd584a	0.100266054
73	0xbb5de6f7	-0.003385959
74	0x3ceafc46	0.028684746
75	0x370c5396	8.364112e-06
76	0x3cd4e24b	0.025986811
77	0x3bb76326	0.005596536
78	0x3d207188	0.03917077
79	0x3e7c2b18	0.24625814
80	0x3bc82452	0.0061078453
81	0xbb3054c9	-0.0026906005
82	0x3af18624	0.0018426818
83	0x3bad744e	0.0052934056
84	0x3b83e953	0.004025617
85	0xbb9379a7	-0.004500586
86	0x3b9a432b	0.004707714
87	0xbbe76978	-0.0070621334
88	0xbe616d41	-0.22014333
89	0xbb0912c6	-0.002091573
90	0xbb51dc42	-0.0032022153
91	0x3d039d72	0.032132573
92	0x3b1cdb76	0.002393452
93	0x3d095c51	0.033535305
94	0x3d790094	0.060791567
95	0x3d0bfcae	0.03417652
96	0xbe5c5b51	-0.2151921
97	0x3bd06123	0.006359236
98	0x3c7549cc	0.014971208
99	0x3b81d701	0.003962398
100	0x3d0958a6	0.033531807
101	0x3cdb9ab1	0.026807161
102	0x3ccb602f	0.024826137
103	0xbbc49f05	-0.006000402
104	0xbf3a18d3	-0.7269413
105	0x3cfddced	0.030989135
106	0x3cdf59d2	0.02726451
107	0x3c00090a	0.007814655
108	0x3c06b503	0.0082218675
109	0x3d129848	0.035789758
110	0x3d19b455	0.037525494
111	0x3d04257e	0.032262318
112	0xbb1cf133	-0.0023947477
113	0x3c8d64d5	0.017259995
114	0xbaa8450d	-0.0012837962
115	0x3cfcceb0	0.030860275
116	0x3cf4bd88	0.029875532
117	0x3d04f64b	0.032461446
118	0x3d1d7786	0.038444065
119	0x3cf30474	0.02966521
120	0x3d24146d	0.040058542
121	0x3cb488bc	0.022037856
122	0xbb238776	-0.0024952567
123	0x3ae5efe9	0.0017542812
124	0xbe8b6b2f	-0.27230212
125	0x3cda9dac	0.026686512
126	0x3d329b16	0.043604933
127	0x3ee7886e	0.45221275
128	0xbbe86566	-0.0070921658
129	0x382aee83	4.075329e-05
130	0x3b823b0b	0.0039743236
131	0x3a8d344f	0.0010773035
132	0x3b348169	0.0027542955
133	0xba352b6c	-0.00069110724
134	0xbb289685	-0.0025724482
135	0x399d6bc3	0.00030025662
136	0x3abed8e3	0.0014560487
137	0xbaf039e2	-0.0018327797
138	0x39c63f08	0.00037812465
139	0x39df1d89	0.0004255588
140	0xbbf159a4	-0.0073654223
141	0x3b55673d	0.0032562756
142	0xbbf48f7f	-0.007463395
143	0x3ae9bfe3	0.0017833676
144	0xbbcb97e4	-0.006213175
145	0xbaafd86f	-0.0013415943
146	0x3b50624a	0.0031796866
147	0x3b026707	0.0019897835
148	0x3bacac68	0.005269576
149	0xbb901e35	-0.004398132
150	0x3b0b8d87	0.0021294074
151	0x3b299b8f	0.0025880074
152	0xbc0b4621	-0.008500607
153	0xbb8e9058	-0.004350703
154	0x3b6bd2ab	0.0035983722
155	0x390cc47d	0.00013424638
156	0xbb43a1fc	-0.002985119
157	0xbb5fdb93	-0.0034157976
158	0x3b33c98c	0.0027433364
159	0x3b53fd23	0.0032346926
160	0x3b48c96e	0.003063764
161	0x3b09d731	0.0021032805
162	0x3b152967	0.0022760273
163	0xbbbf89d3	-0.0058452873
164	0x3b3ccaf6	0.0028807498
165	0xbb81d482	-0.0039621005
166	0x3b2e32c3	0.002658055
167	0xbbb21237	-0.0054343003
168	0x3afe3c35	0.0019396605
169	0xbb17c3e2	-0.0023157527
170	0x3b4f5eca	0.0031642192
171	0x3a46788e	0.00075710646
172	0x3b600b4d	0.0034186423
173	0xbbd3cdcc	-0.006463742
174	0x3a58c11e	0.0008268523
175	0xbc0cc3e5	-0.008591627
176	0xbc020173	-0.007934916
177	0xbc0358c8	-0.008016773
178	0xbbc1e2a8	-0.005916912
179	0xbb6e5674	-0.0036367448
180	0x3a064b99	0.0005122959
181	0xba555212	-0.00081375346
182	0xbb40bb1e	-0.0029408406
183	0x3a83ee22	0.0010065476
184	0xbbf90c82	-0.007600368
185	0x3ba2f183	0.004972638
186	0xbb72f63d	-0.003707304
187	0xbb77169e	-0.003770269
188	0x3979b7ee	0.0002381501
189	0xbb9801d2	-0.004638889
190	0x3a978cfb	0.0011562401
191	0xba9cfdc7	-0.0011977487
192	0x3b5cfb2f	0.0033719053
193	0xba879d9a	-0.0010346652
194	0xbb2ea64b	-0.0026649411
195	0x3a75a9ba	0.00093712995
196	0x3b2da7f6	0.0026497818
197	0x3b75036e	0.0037386077
198	0x3775a774	1.4642126e-05
199	0x3b8c9240	0.0042898953
200	0xbb709c13	-0.0036714121
201	0xbaed1a3b	-0.0018089482
202	0xbbe224e7	-0.0069013718
203	0xbbabf416	-0.005247603
204	0xbbc2c17c	-0.0059434753
205	0xbb9b39a7	-0.0047370973
206	0x3b168abf	0.0022970883
207	0xbb849403	-0.0040459647
208	0xbbdd293a	-0.0067492994
209	0xbbd3def8	-0.006465789
210	0xbbbba025	-0.005725878
211	0x3aff53bc	0.0019479911
212	0xbb250cd4	-0.0025184648
213	0x3971bb1f	0.00023053259
214	0x3b3ab3d9	0.0028488545
215	0x3bb8bba6	0.005637604
216	0xbb8c25f2	-0.0042769844
217	0x3ba37f40	0.0049895346
218	0x3b4efaf8	0.0031582695
219	0xb8077bf2	-3.230194e-05
220	0xbb2a5436	-0.0025990135
221	0x3b04a4d6	0.0020239851
222	0x39322128	0.00016987754
223	0x3b238060	0.0024948344
224	0xbbbd8a12	-0.0057842815
225	0xbb372f9a	-0.0027951957
226	0xba5cad23	-0.00084181334
227	0xbbdcefa6	-0.0067424355
228	0xbba19ceb	-0.004932036
229	0x3b00fee6	0.0019683181
230	0xbbcffae0	-0.0063470453
231	0x3b818f7f	0.0039538736
232	0x3bd12170	0.00638216
233	0xb927b2a8	-0.00015992916
234	0xbaa62d3d	-0.0012678277
235	0xba45b029	-0.00075412035
236	0xbb1409a2	-0.002258875
237	0x3bd9fc96	0.006652425
238	0xbb7e6f13	-0.003882353
239	0xbbac2adb	-0.005254132
240	0xbb3d5ef2	-0.0028895703
241	0xba4fcc20	-0.00079268403
242	0xbb84b348	-0.0040496923
243	0xbae568b3	-0.0017502516
244	0xbb0ca5db	-0.0021461162
245	0x3bbabf69	0.0056990874
246	0xbb482a1b	-0.0030542675
247	0x3a245a98	0.0006269603
248	0xb992be37	-0.0002798901
249	0xba38fa85	-0.0007056373
250	0xbba656f9	-0.005076286
251	0x3b2839c1	0.002566919
252	0x3b92ba8f	0.004477806
253	0xb91d447c	-0.00014998199
254	0xbad58ca7	-0.0016292528
255	0x3b20bc55	0.0024526317

layer5.bias f4 [32]
0	0x3dd8d8b3	0.10588207
1	0x3daecd7d	0.085352875
2	0xb98e68b9	-0.00027162375
3	0xba7b0fa4	-0.0009577221
4	0x3df613da	0.12015505
5	0x3d9113ba	0.07083841
6	0xba94a169	-0.0011339608
7	0xbb514415	-0.003193145
8	0x3da7eb54	0.08199182
9	0x39b67965	0.0003480419
10	0x3e7fc9dd	0.24979348
11	0x3dc11496	0.094277546
12	0x3e7cdfe6	0.24694785
13	0x3e88de9e	0.26732343
14	0x3da478aa	0.08030827
15	0xbbbe8708	-0.005814437
16	0x3e5913e7	0.21198998
17	0x3e3ba7cb	0.18325727
18	0x3e6b2417	0.22962986
19	0x3dbfa6c2	0.093579784
20	0x3dc6062d	0.09669147
21	0x3dfaaeb8	0.12240356
22	0x3e723dc0	0.23656368
23	0x3dd253b4	0.10269871
24	0x3e6485de	0.22316691
25	0x3dd26a72	0.10274209
26	0x3d93ae7a	0.07211013
27	0x3e83ad92	0.2571836
28	0xb898f8ab	-7.294243e-05
29	0xbbb4ae7f	-0.0055139656
30	0xbba671db	-0.0050794906
31	0xbb934750	-0.004494585

layer8.weight f4 [5, 32]
0	0xbdb4f89e	-0.088364825
1	0xbd597821	-0.05309308
2	0xbb640070	-0.00347903
3	0xbbe5cdae	-0.0070130443
4	0xbda79092	-0.081818715
5	0xbd63aa7a	-0.0555825
6	0xbb419299	-0.0029536842
7	0x3b91435a	0.0044330778
8	0xbd5c7331	-0.053820793
9	0x3c002992	0.007822411
10	0x3eace739	0.3377016
11	0xbd9eb853	-0.07750001
12	0x3e4df2d8	0.20112169
13	0x3e8a44f6	0.27005738
14	0xbd644229	-0.055727158
15	0x3bfafcfd	0.007659553
16	0xbe48a693	-0.19594793
17	0x3f0ff5a6	0.56234205
18	0x3e7819b4	0.24228555
19	0xbd609954	-0.054833725
20	0xbedf7e14	-0.43650877
21	0xbd5ab42b	-0.053394478
22	0x3e6693b1	0.22517277
23	0xbd742b2a	-0.059611477
24	0xbe5cc3d0	-0.21559072
25	0xbd929d65	-0.07158927
26	0xbd52b154	-0.051438645
27	0x3e8bc06e	0.2729525
28	0x3ba50221	0.005035654
29	0x3bf593f1	0.0074944426
30	0xbb534d9f	-0.003224231
31	0x3bb69fa4	0.00557323
32	0xbda6bb03	-0.081411384
33	0xbd7e49f3	-0.062082242
34	0xbc22f0e4	-0.009945128
35	0x3a567328	0.0008180612
36	0xbdb219eb	-0.0869635
37	0xbd7e494b	-0.062081616
38	0xbc083361	-0.008313031
39	0x3bee4420	0.0072713047
40	0xbd768caf	-0.06019276
41	0xbba19ade	-0.0049317917
42	0x3eb0bece	0.34520572
43	0xbd9806d4	-0.07423177
44	0x3e588d33	0.21147613
45	0x3e8aecec	0.27133882
46	0xbd6ef8eb	-0.058342855
47	0x3b716409	0.0036833307
48	0xbe436711	-0.19082285
49	0x3f0aa8ce	0.54163826
50	0x3e86508a	0.2623332
51	0xbd79f5a6	-0.061025284
52	0xbec68d6f	-0.3877978
53	0xbdaa7314	-0.08322731
54	0x3e6d72dc	0.23188347
55	0xbd8dcc4f	-0.069237344
56	0xbe812201	-0.25221255
57	0xbd8ab702	-0.06773187
58	0xbd78b1bc	-0.060716376
59	0x3e8c0252	0.2734552
60	0x3b458309	0.0030137917
61	0xbc1cef10	-0.009578481
62	0xbb2aace1	-0.0026042985
63	0xbbea2846	-0.0071459142
64	0xbdc23ed9	-0.094846435
65	0xbd85dbe6	-0.06536083
66	0x3bba78a1	0.0056906496
67	0xbb932659	-0.0044906554
68	0xbdc0373a	-0.09385534
69	0xbd399473	-0.045307588
70	0xbbfed458	-0.007776778
71	0x3b8fde50	0.0043905154
72	0xbd85773a	-0.06516881
73	0x3b8bdbd3	0.0042681484
74	0x3eae3b80	0.3402977
75	0xbdb799bc	-0.089648694
76	0x3e4fc1e9	0.20288815
77	0x3e8de1c3	0.27711305
78	0xbd5d627c	-0.054049
79	0x3b168066	0.0022964715
80	0xbe39f1a2	-0.18158582
81	0x3f0ef93b	0.55849046
82	0x3e7a980d	0.24472065
83	0xbd8a1719	-0.06742687
84	0xbeceb414	-0.40371764
85	0xbd7bb3c7	-0.061450746
86	0x3e662e56	0.22478613
87	0xbda1682b	-0.078811966
88	0xbe614184	-0.21997648
89	0xbd8baa82	-0.06819631
90	0xbd657f5c	-0.056029662
91	0x3e8b7e9f	0.27245042
92	0xbaea3e4d	-0.001787135
93	0x3b4fa502	0.0031684046
94	0xbbfd6516	-0.0077329976
95	0x3b3e7cb7	0.0029066035
96	0xbd75b84f	-0.059990223
97	0xbd24400c	-0.040100142
98	0x3c060b6e	0.008181436
99	0xbbb31568	-0.0054651983
100	0xbd86bacd	-0.06578598
101	0xbceac6d0	-0.028659254
102	0x3c1e8980	0.009676337
103	0xbb7a3af1	-0.0038182104
104	0xbd2d4b18	-0.042307943
105	0xbb188a7c	-0.0023275902
106	0x3eb4175c	0.35174072
107	0xbcf74e8a	-0.030188818
108	0x3e6f4d9e	0.23369452
109	0x3e797b26	0.24363384
110	0xbcc90efd	-0.02454328
111	0xbba8e22a	-0.005153914
112	0xbe2a6ab2	-0.16642264
113	0x3f11c501	0.5694123
114	0x3e6b6c62	0.22990564
115	0xbca938c3	-0.020656949
116	0xbf1b1fc9	-0.60595375
117	0xbcec31ae	-0.028832283
118	0x3e67f3cc	0.22651595
119	0xbc82f47f	-0.015985725
120	0xbe048b26	-0.12943706
121	0xbd6a874b	-0.05725793
122	0xbd167746	-0.03673484
123	0x3e72c3e0	0.23707533
124	0x3a9ef905	0.0012128657
125	0xbb249118	-0.0025110897
126	0xbb85f263	-0.0040877326
127	0xbbed60c2	-0.0072442004
128	0xbd83681e	-0.06416343
129	0xbd1d840c	-0.038456008
130	0xba6fd622	-0.0009149035
131	0x39eb0f92	0.00044834294
132	0xbd9e095f	-0.07716631
133	0xbd3f0ffc	-0.046646103
134	0xbc0790e2	-0.008274289
135	0xba8e06c8	-0.0010835761
136	0xbd636bf6	-0.05552288
137	0xbaaa6301	-0.0012999476
138	0x3eb9a7b4	0.3626076
139	0xbd8e0130	-0.0693382
140	0x3e3c579d	0.18392797
141	0x3e82617f	0.2546501
142	0xbd1496f3	-0.03627677
143	0x3bc1fd74	0.0059201065
144	0xbe150191	-0.14551379
145	0x3f1fe371	0.62456423
146	0x3e57376b	0.21017234
147	0xbd4852d6	-0.048907124
148	0xbf0660de	-0.5249156
149	0xbd74eec6	-0.059798025
150	0x3e4b85ee	0.19875309
151	0xbd83b690	-0.064313054
152	0xbe3e9571	-0.18611695
153	0xbd4a777b	-0.04943035
154	0xbd1b2cec	-0.037884638
155	0x3e79df10	0.24401498
156	0xbc0785a9	-0.008271613
157	0xbbb4b394	-0.0055145714
158	0xbc0cc669	-0.008592227
159	0x3c1689f9	0.009188169

layer8.bias f4 [5]
0	0x3d6e2a51	0.058145825
1	0xbdd7c2fc	-0.10535237
2	0x3cd7f6bc	0.02636277
3	0x3eb2b396	0.34902638
4	0x3cff1089	0.031135814
